workspace/base_modl,k=1/checkpoints/final.epoch0049-score37.3144.pth (torch, 469234 bytes, 30 tensors)

dw.nw.0.weight f4 [64, 2, 3, 3]
-0.098059826 -0.14267087 0.22824039 0.0005453421 0.038396113 -0.2114259 -0.22521384 0.078274734
-0.018539548 0.05801929 -0.2601429 0.1976729 -0.2097781 -0.22223885 0.2116093 0.017931165
-0.17745763 -0.20764676 0.036294576 -0.018866925 -0.049095243 -0.060863018 -0.17813683 0.023490984
0.21866564 0.26664796 -0.24849997 0.10294368 0.19504972 -0.1826838 0.12488501 -0.42224094
0.0762772 0.08970696 0.079080574 0.050223112 -0.12757505 0.07353236 -0.2228304 -0.105825104
0.15388545 0.2524154 -0.28487942 -0.2957656 -0.20806043 -0.07809154 -0.19992399 0.008446442
-0.1441503 0.17307904 0.08614637 -0.023430694 0.15687674 -0.07989091 0.061661094 -0.14113867
0.10256457 0.002600595 -0.16776508 -0.13525029 0.14774388 0.22375579 -0.06568495 0.017294643
-0.30615816 -0.06117779 0.21519184 -0.070059925 0.03053422 0.28303128 -0.12771115 0.008247065
0.13767171 0.19074874 -0.10311006 -0.2679551 0.16946831 -0.24532783 -0.15039563 0.037033867
-0.17776443 -0.18255785 0.16849305 0.12118505 0.08282167 0.035980333 -0.07141608 -0.028959213
0.19345991 0.0458371 0.09553542 0.0003360566 -0.07638928 -0.16311702 0.35140175 0.009654952
-0.32109687 -0.0022667057 0.11687852 -0.062343497 0.15809625 -0.016695626 0.10078126 -0.095215134
0.042801734 -0.24479458 -0.047230672 0.12665497 0.0146337785 0.13484497 -0.06905134 -0.19479282
-0.10393791 0.21314776 0.08977643 -0.048863195 -0.09903509 -0.009661921 -0.03954097 -0.21690471
-0.026982903 0.27731064 -0.059353583 0.007905949 0.2318489 -0.14738853 0.1262517 0.19212283
-0.28300157 -0.19093837 0.17399305 -0.21114972 0.13728882 -0.0551817 0.09973348 0.11174888
-0.17376429 -0.2355194 -0.036948763 -0.16358274 -0.1468317 0.122996666 -0.103674166 0.22707248
-0.04019737 -0.09406803 -0.18003498 -0.064026974 0.21583098 0.300239 0.023254981 -0.27725813
0.109113134 0.038247835 0.115230285 0.115932465 -0.24488606 0.2188556 -0.3910879 -0.0051518357
0.08660348 0.12772787 0.07436762 -0.16634752 -0.104048364 -0.009378157 0.018646097 0.3834767
-0.06927364 0.15073924 -0.28261057 0.047910377 -0.1514865 -0.08443664 0.007978984 0.05444239
0.31501526 -0.03403514 0.05582384 -0.2126558 0.15822805 -0.15381667 -0.08538802 0.032624193
-0.025268683 0.045991972 0.051922947 0.046309154 -0.072163574 -0.02066642 -0.26744154 -0.17749773
-0.14310513 0.14640677 0.15064439 0.14297915 -0.11430146 0.31825307 0.121606715 0.039502215
-0.07476682 -0.22739607 0.074330255 -0.018079765 0.10286579 -0.057806287 0.04844027 -0.023923019
0.28478384 0.044820294 -0.30623478 -0.011037192 -0.2453984 0.23047401 -0.10723273 0.116429254
-0.085345894 0.15566185 -0.08583011 0.15570554 -0.27421692 0.11208967 0.010305119 -0.06238976
0.095421724 -0.055957012 0.16458255 0.0055227377 0.20181262 -0.15551706 -0.15931039 0.19706407
-0.26348928 0.053087633 0.16527785 0.106019124 -0.11708434 0.17256506 0.09230696 0.11130649
-0.17509183 -0.09638617 -0.23507598 -0.04248836 0.07220786 0.18698543 -0.07946917 -0.020578688
-0.22743411 0.21171235 -0.20362039 0.17612132 0.040159427 0.20691763 -0.015563788 -0.0029422687
00000000: 97d3 c8bd 5018 12be d9b7 693e 4af5 0e3a
00000010: 3e45 1d3d 0880 58be 759e 66be 814e a03d
00000020: 40e0 97bc a3a5 6d3d 7331 85be c46a 4a3e
00000030: 12d0 56be 9592 63be 1cb0 583e 61e4 923c
00000040: 74b7 35be 5aa1 54be 9fa9 143d cf8e 9abc
00000050: 1818 49bd 804b 79bd 8069 36be 2a70 c03c
00000060: e3e9 5f3e 1586 883e c776 7ebe 23d4 d23d
00000070: 1dbb 473e 7611 3bbe b6c3 ff3d f72f d8be
00000080: 3837 9c3d 48b8 b73d fff4 a13d c0b6 4d3d
00000090: 09a3 02be 2298 963d a72d 64be d5ba d8bd
000000a0: 2694 1d3e 973c 813e b7db 91be 976e 97be
000000b0: cb0d 55be 75ee 9fbd e0b8 4cbe f262 0a3c
000000c0: 239c 13be a23b 313e 826d b03d baf1 bfbc
000000d0: 4ca4 203e d89d a3bd 5890 7c3d a886 10be
000000e0: 600d d23d be6e 2a3b 9cca 2bbe 0d7f 0abe
000000f0: 2c4a 173e 3d20 653e d585 86bd 7fad 8d3c
00000100: c3c0 9cbe 9095 7abd 405b 5c3e 947b 8fbd
00000110: e722 fa3c 7ae9 903e b6c6 02be b31e 073c
00000120: d0f9 0c3e a353 433e 5e2b d3bd 6931 89be
00000130: 1a89 2d3e 3837 7bbe 5001 1abe d3b0 173d
00000140: e107 36be 72f0 3abe 7189 2c3e de2f f83d
00000150: 689e a93d 1d60 133d 9842 92bd df3b edbc
00000160: 5b1a 463e afbf 3b3d 13a8 c33d c130 b039
00000170: fc71 9cbd 2608 27be eeea b33e ce2f 1e3c
00000180: cf66 a4be 038d 14bb 015e ef3d e55b 7fbd
00000190: fce3 213e 44c5 88bc 6866 ce3d 2700 c3bd
000001a0: df50 2f3d 6eab 7abe f374 41bd d7b1 013e
000001b0: 84c2 6f3c cd14 0a3e ca6a 8dbd c577 47be
000001c0: 66dd d4bd 6843 5a3e b4dc b73d c624 48bd
000001d0: e9d2 cabd 094d 1ebc b6f5 21bd 451c 5ebe
000001e0: 400b ddbc a9fb 8d3e be1c 73bd f487 013c
000001f0: cc69 6d3e 05ed 16be 2048 013e d9bb 443e
00000200: 95e5 90be 5985 43be 3c2b 323e a237 58be
00000210: 7195 0c3e 3506 62bd 1141 cc3d 99dc e43d
00000220: 44ef 31be ff2b 71be 9657 17bd 3c82 27be
00000230: 0d5b 16be ade5 fb3d 1f53 d4bd b085 683e
00000240: ffa5 24bd bda6 c0bd 175b 38be 9320 83bd
00000250: cc02 5d3e edb8 993e 3b81 be3c c7f4 8dbe
00000260: b576 df3d c3a9 1c3d dbfd eb3d 006e ed3d
00000270: 69c3 7abe af1b 603e ac3c c8be bbd0 a8bb
00000280: 2a5d b13d 18cb 023e 0d4e 983d 0157 2abe
00000290: 4f17 d5bd d7a6 19bc b3bf 983c 0f57 c43e
000002a0: 57df 8dbd 635b 1a3e 55b2 90be ac3d 443d
000002b0: 471f 1bbe 1eed acbd 49ba 023c fcfe 5e3d
000002c0: ae49 a13e 6e68 0bbd 8aa7 643d 71c2 59be
000002d0: 8906 223e 1e82 1dbe eadf aebd f2a0 053d
000002e0: 4500 cfbc 1462 3c3d 28ad 543d abae 3d3d
000002f0: 7fca 93bd a04c a9bc 19ee 88be f7c1 35be
00000300: 278a 12be a8eb 153e 8642 1a3e 2069 123e
00000310: e216 eabd 11f2 a23e f10c f93d 13cd 213d
00000320: 591f 99bd 84da 68be 763a 983d 041c 94bc
00000330: 4dab d23d 49c6 6cbd 4e69 463d 35fa c3bc
00000340: 30cf 913e 7c95 373d ceca 9cbe 57d5 34bc
00000350: b849 7bbe 6101 6c3e d59c dbbd 7672 ee3d
00000360: d4c9 aebd d265 1f3e b2c7 afbd 4671 1f3e
00000370: 2966 8cbe 458f e53d cdd6 283c 688c 7fbd
00000380: 776c c33d 2e33 65bd 5488 283e 15f8 b43b
00000390: f8a7 4e3e dd3f 1fbe 4322 23be 2acb 493e
000003a0: 11e8 86be 6b72 593d 993e 293e 8e20 d93d
000003b0: eac9 efbd e5b4 303e 6e0b bd3d a8f4 e33d
000003c0: 464b 33be 1d66 c5bd c2b7 70be 4608 2ebd
000003d0: b7e1 933d 1c79 3f3e bbc0 a2bd a394 a8bc
000003e0: 7de4 68be 1fcb 583e dd81 50be 2659 343e
000003f0: 367e 243d 37e2 533e 42ff 7ebc 14d3 40bb

dw.nw.0.bias f4 [64]
-0.14609343 0.19095139 0.07465216 -0.19175342 -0.046008486 0.19748959 -0.034338277 0.15433188
-0.0037891862 0.20489752 -0.10298719 0.056110814 -0.08622376 -0.14549088 -0.21076138 -0.08061167
0.14128156 -0.18581401 0.17827724 0.20132488 0.036107548 -0.18859941 -0.1582705 0.20380849
-0.10001092 -0.116435766 -0.12329552 -0.12209753 0.02137732 0.10581952 0.023947861 0.1659129
-0.12209891 0.07050651 0.05507468 0.238395 0.22804108 -0.062157832 0.19779089 -0.18045314
-0.04622032 0.19432765 -0.021354236 0.20685068 0.022398343 -0.14953649 -0.017659454 -0.14221735
-0.21908638 0.055525947 -0.02873217 0.1336987 0.031407706 0.21333456 0.12373174 0.028802158
0.18945022 0.095247656 0.16229258 -0.004365046 0.1502695 0.04830263 -0.2277838 -0.010572851
00000000: 8499 15be c388 433e 3be3 983d 025b 44be
00000010: 6573 3cbd b63a 4a3e 4ba6 0cbd 2d09 1e3e
00000020: ff53 78bb a8d0 513e f3ea d2bd 74d4 653d
00000030: 1596 b0bd 90fb 14be d5d1 57be bb17 a5bd
00000040: 1dac 103e 0746 3ebe 4f8e 363e 1c28 4e3e
00000050: 82e5 133d 3420 41be a911 22be 2cb3 503e
00000060: 86d2 ccbd e075 eebd 5d82 fcbd 450e fabd
00000070: 7d1f af3c e8b7 d83d 4e2e c43c 12e5 293e
00000080: fe0e fabd b865 903d fd95 613d d21d 743e
00000090: 9a83 693e 3699 7ebd b289 4a3e b5c8 38be
000000a0: 8551 3dbd d4fd 463e 14ef aebc aad0 533e
000000b0: bb7c b73c 1820 19be 8faa 90bc 6da1 11be
000000c0: 2e58 60be 2d6f 633d ba5f ebbc 50e8 083e
000000d0: 5ea5 003d 6074 5a3e 1167 fd3d 81f2 eb3c
000000e0: 3dff 413e 3411 c33d 0730 263e a908 8fbb
000000f0: 3fe0 193e fbd8 453d 2840 69be c039 2dbc

dw.nw.1.weight f4 [64]
0.7772334 0.95915663 0.941456 0.9687836 0.768144 1.0213087 1.0118644 0.77586204
1.1333429 1.2551626 1.0331149 1.1819543 1.0750003 0.9984817 0.98586917 1.0377122
0.73092186 0.87043947 1.0299467 0.8916735 0.84929633 0.83318174 1.0576296 1.1894466
0.8588583 1.1454926 0.7851554 1.1882708 1.002537 0.8280292 1.2977941 0.87963575
1.1454492 0.70228803 1.2130684 1.1530343 0.84611166 1.0514638 1.0082136 0.9327722
0.9548518 1.175631 0.9882992 1.0109925 0.9633571 0.8469912 0.988895 0.848178
0.84889096 0.78452855 0.67671406 0.9609642 0.7648647 0.90090966 0.83733 1.0431165
0.8840978 0.85566574 0.7733002 1.1816609 0.858331 1.1963733 0.94399726 0.89826524
00000000: c5f8 463f 4a8b 753f 4303 713f 3402 783f
00000010: 16a5 443f 3eba 823f c684 813f e59e 463f
00000020: 6111 913f 2ba9 a03f 1c3d 843f 474a 973f
00000030: 9c99 893f 7f9c 7f3f ec61 7c3f c1d3 843f
00000040: b21d 3b3f 1fd5 5e3f 4bd5 833f b744 643f
00000050: 7c6b 593f 664b 553f 6860 873f c93f 983f
00000060: 23de 5b3f 809f 923f f2ff 483f 4219 983f
00000070: 2253 803f b9f9 533f 1e1e a63f cf2f 613f
00000080: 149e 923f 26c9 333f d345 9b3f a196 933f
00000090: c69a 583f 5e96 863f 250d 813f 29ca 6e3f
000000a0: 2b71 743f 147b 963f 2d01 7d3f 3468 813f
000000b0: 929e 763f 6ad4 583f 3928 7d3f 3222 593f
000000c0: eb50 593f ddd6 483f 223d 2d3f c001 763f
000000d0: 2cce 433f 04a2 663f 425b 563f d784 853f
000000e0: 3c54 623f e90c 5b3f 00f7 453f aa40 973f
000000f0: 95bb 5b3f c322 993f cea9 713f b6f4 653f

dw.nw.1.bias f4 [64]
-0.18086948 0.019574132 0.12490552 -0.40398756 0.1057763 -0.16668737 -0.04084825 -0.0066005676
0.50296485 -0.03766731 -0.11913012 -0.039988317 -0.02373523 0.067341104 -0.037841044 -0.042266063
0.24122228 0.16902156 0.013593035 0.9170194 -0.07946586 -0.14488332 -0.032380376 -0.049887005
0.07291206 -0.10370029 0.072008796 -0.27332208 0.06677402 -0.09397251 0.24683729 0.1455543
-0.011744908 -0.4383903 -0.026485022 0.29201698 1.3774225 -0.052659195 -0.020318583 -0.1448233
-0.17798397 -0.21582597 -0.23679623 0.045447644 0.24565849 0.0063973293 0.30762133 -0.16331185
0.0047621476 -0.005433716 -0.12686428 -0.025305023 -0.09347913 -0.052189544 -0.0474428 -0.48019633
0.0077144518 0.4985579 -0.23322462 -0.018292217 0.31205642 -0.06040272 0.50741094 -0.09018339
00000000: d935 39be ee59 a03c 77ce ff3d 75d7 cebe
00000010: 3fa1 d83d 18b0 2abe 7f50 27bd 9349 d8bb
00000020: 4ec2 003f 0a49 1abd 7efa f3bd caca 23bd
00000030: 6370 c2bc 22ea 893d 36ff 1abd 2e1f 2dbd
00000040: f902 773e fd13 2d3e 52b5 5e3c c9c1 6a3f
00000050: ffbe a2bd 4b5c 14be 49a1 04bd 5156 4cbd
00000060: eb52 953d d160 d4bd 5979 933d dff0 8bbe
00000070: d1c0 883d a974 c0bd eac2 7c3e 300c 153e
00000080: b76d 40bc b274 e0be 1ef7 d8bc 4083 953e
00000090: 614f b03f 2bb1 57bd 2873 a6bc 8f4c 14be
000000a0: 6e41 36be 7c01 5dbe b67a 72be 4f27 3a3d
000000b0: e68d 7b3e b0a0 d13b 8b80 9d3e 393b 27be
000000c0: ca0b 9c3b 500d b2bb b6e8 01be 7b4c cfbc
000000d0: fc71 bfbd b4c4 55bd 6253 42bd 4bdc f5be
000000e0: 83c9 fc3b fb42 ff3e 6fd2 6ebe 8fd9 95bc
000000f0: dcc5 9f3e d868 77bd afe5 013f 12b2 b8bd

dw.nw.1.running_mean f4 [64]
-0.17626998 0.19619006 0.062329933 -0.19240695 -0.033211607 0.19563791 -0.034687012 0.13637722
-0.0013516461 0.2048518 -0.10148585 0.05571739 -0.08624099 -0.14150979 -0.2112372 -0.08053818
0.10621035 -0.18324517 0.17756785 0.20143643 0.030389255 -0.18234031 -0.16212589 0.20368549
-0.09742086 -0.11677413 -0.120981224 -0.12173506 0.02521826 0.1353864 0.026774207 0.16315971
-0.12210734 0.022305967 0.053157967 0.23888236 0.22882573 -0.06203762 0.1982695 -0.15229355
-0.049499884 0.19163153 -0.02215902 0.20344743 0.02351999 -0.15440544 -0.019555459 -0.12106918
-0.21791698 0.044262078 -0.038134944 0.13298999 0.02432856 0.20737746 0.13434939 0.031532396
0.18922006 0.09613006 0.13519974 -0.0049157185 0.14614877 0.0479173 -0.23120713 -0.030628324
00000000: 1e80 34be 0ce6 483e ac4d 7f3d 5406 45be
00000010: e508 08bd 4e55 483e f813 0ebd 78a6 0b3e
00000020: b829 b1ba acc4 513e d0d7 cfbd eb37 643d
00000030: 1e9f b0bd f1e7 10be 914e 58be 34f1 a4bd
00000040: d084 d93d 9fa4 3bbe 59d4 353e 5a45 4e3e
00000050: e3f2 f83c 6bb7 3abe 5404 26be ee92 503e
00000060: 9684 c7bd 4627 efbd 01c5 f7bd 3b50 f9bd
00000070: 8696 ce3c bca2 0a3e 9555 db3c 5713 273e
00000080: 6a13 fabd 01bb b63c 2bbc 593d 949d 743e
00000090: 4b51 6a3e 291b 7ebd 2907 4b3e d7f2 1bbe
000000a0: 64c0 4abd 0e3b 443e d586 b5bc 8654 503e
000000b0: feac c03c 761c 1ebe c532 a0bc 1ef3 f7bd
000000c0: a125 5fbe 274c 353d 6333 1cbd 872e 083e
000000d0: b04c c73c c25a 543e e392 093e 1d28 013d
000000e0: e7c2 413e d6df c43d cd71 0a3e 0914 a1bb
000000f0: 06a8 153e ee44 443d 90c1 6cbe 40e8 fabc

dw.nw.1.running_var f4 [64]
0.006206838 0.00031541954 0.006279779 0.00019851903 0.005465466 0.00014417381 0.00014322578 0.0029922705
0.0001209449 3.246971e-05 0.00027088093 3.6162855e-05 9.779394e-05 0.00024189943 0.00026016953 0.000116111514
0.021998707 0.000107823675 7.7186414e-05 5.2986e-05 0.0006964569 0.00052862725 0.0003649367 5.128774e-05
0.00015153072 4.1683452e-05 0.027481759 3.236916e-05 0.0003465122 0.020774007 0.00015902755 0.00013562944
4.634606e-05 0.016460573 9.5208816e-05 2.0820145e-05 3.6227513e-05 6.241008e-05 0.0001296528 0.006276136
0.0002539041 0.00011517237 0.0001153505 0.00019182253 4.1176223e-05 0.0003849624 7.4425276e-05 0.0042861463
0.00012981649 0.0016815183 0.00089704274 0.00034721903 0.0020938378 0.00071302627 0.0094591165 0.00015168021
9.9962424e-05 4.4790966e-05 0.0068924506 2.7426702e-05 0.000543333 4.3060336e-05 0.00014222975 0.0030481564
00000000: bb62 cb3b e55e a539 9bc6 cd3b 8c29 5039
00000010: a717 b33b 5d2d 1739 e12e 1639 f819 443b
00000020: cca3 fd38 1630 0838 0605 8e39 92ad 1738
00000030: b916 cd38 62a6 7d39 5d67 8839 e580 f338
00000040: a236 b43c 651f e238 24df a138 493d 5e38
00000050: 6e92 363a 9393 0a3a fa54 bf39 cb1d 5738
00000060: 38e4 1e39 44d5 2e38 6d21 e13c 1fc4 0738
00000070: 15ac b539 402e aa3c a2c0 2639 c037 0e39
00000080: b463 4238 53d8 863c d8aa c738 eca6 ae37
00000090: fff2 1738 28e2 8238 69f3 0739 0ba8 cd3b
000000a0: 6e1e 8539 b288 f138 54e8 f138 f823 4939
000000b0: a2b4 2c38 c7d4 c939 c414 9c38 cd72 8c3b
000000c0: 591f 0839 6466 dc3a 8527 6b3a f30a b639
000000d0: c538 093b 62ea 3a3a 69fa 1a3c 590c 1f39
000000e0: eba2 d138 efdd 3b38 11da e13b 6512 e637
000000f0: 766e 0e3a af9b 3438 8223 1539 94c3 473b

dw.nw.3.weight f4 [64, 64, 3, 3]
0.06972401 0.049505826 -0.030151717 0.02283919 0.032149594 0.0075866845 -0.031885896 -0.018490441
0.0046838652 -0.0023056406 -0.08067421 -0.063994065 -0.07946987 0.028215485 0.04264593 -0.025667502
0.031249842 -0.00415311 0.08494459 0.048719108 0.044489123 0.03802406 -0.05644036 -0.015142233
0.038929928 0.041579936 -0.034272708 -0.0030492174 0.042873923 0.015041166 0.042198274 -0.044166602
-0.06103022 -0.19384898 -0.096588634 -0.075610206 0.11117158 0.058366366 0.09181456 0.063019715
0.09258412 0.030213365 0.03350776 0.09924 0.025475556 0.12401444 -0.06249268 -0.12245907
-0.05317415 -0.03292273 0.022028139 -0.08693803 -0.09963467 -0.103338845 -0.024323266 -0.016820211
-0.11760999 0.0048241476 -0.06706674 -0.1802156 0.063712865 0.08196552 -0.041997433 0.049300913
0.07492134 0.014059327 0.05403727 -0.00086625025 0.0004909589 0.04315013 0.017910857 0.0066491845
-0.049163964 0.03721269 -0.044379916 -0.061645288 0.038843732 0.016146375 -0.032189984 0.11799591
0.05412894 0.076613836 0.0521513 0.060384836 0.096733555 -0.017726101 -0.04630788 -0.05401924
-0.043620866 -0.059257723 0.03058882 0.073182754 -0.025275493 -0.0048947646 -0.040042456 -0.062058393
0.07408254 0.0031354814 0.06033384 -0.045764823 -0.03482919 -0.011909685 -0.14621985 -0.012028344
-0.013981892 -0.068409 0.022178166 -0.034382798 -0.079607695 -9.511033e-05 0.030563 0.03102637
0.03658554 -0.019253945 0.026317963 0.07442566 0.14486058 -0.06401674 0.0012073319 0.020523392
-0.0256448 0.0047067935 -0.016349701 0.06563548 0.028935952 0.0031173083 -0.066417255 -0.040857945
0.08772266 -0.06888389 -0.02072614 0.08817868 -0.09518076 -0.06560013 0.079128474 0.059489984
0.03264845 0.02050005 0.12686987 0.047830015 -0.04042077 0.044515576 -0.051851917 -0.029098567
0.039123602 0.049604665 0.022765297 0.041322093 0.018033152 0.018485434 0.0018361005 0.021527
-0.015188429 -0.015429533 -0.089040615 -0.04692134 0.056983847 -0.025501175 0.079985164 -0.02278944
-0.040017273 -0.0187633 0.11165097 -0.018989047 -0.07815289 0.022828747 -0.08478368 -0.036565356
0.04100364 -0.08261221 -0.009630642 -0.13316093 -0.09362279 0.038050275 0.02365595 0.036718182
-0.065892786 -0.012682102 -0.058216557 -0.08875137 0.005410974 0.01453265 -0.05909872 0.06187791
0.043910146 -0.010375083 0.033569485 0.03916453 -0.016111465 0.122196496 0.059327666 -0.015566278
0.007228457 0.0029961444 -0.011588735 -0.0385625 -0.027481483 0.03736943 -0.044448443 0.14177056
0.0015322358 -0.091108866 0.12183148 -0.13537946 -0.019451562 0.06654421 -0.14974785 0.17219381
0.08771599 -0.046656296 -0.019320339 -0.09240287 -0.057435375 -0.031415787 0.03679416 -0.1027341
0.010823869 0.13358988 0.10554844 0.08310697 -0.06795107 -0.08285243 -0.033333838 -0.08408174
0.001557689 0.042339962 -0.05895204 -0.006026441 0.039869525 0.036650456 0.009452365 -0.0010434157
0.07658716 -0.10101265 0.061249357 0.040462654 0.017003173 0.024844978 -0.024488414 -0.046426993
0.0019500868 0.008834452 -0.065850735 -0.033607457 -0.02639143 -0.1885536 -0.050540525 -0.16314851
-0.14498584 -0.08841354 -0.10609595 -0.07942305 -0.017491683 -0.045483883 0.0043959515 -0.07155722
00000000: 76cb 8e3d 9fc6 4a3d bc00 f7bc 4119 bb3c
00000010: 4baf 033d b999 f83b c99a 02bd 4479 97bc
00000020: 1c7b 993b 3b1a 17bb 8538 a5bd 520f 83bd
00000030: 19c1 a2bd 2924 e73c 80ad 2e3d a744 d2bc
00000040: abff ff3c d016 88bb 6ef7 ad3d b08d 473d
00000050: 3a3a 363d 1ebf 1b3d 022e 67bd 2117 78bc
00000060: fd74 1f3d b94f 2a3d 8a61 0cbd 61d5 47bb
00000070: 919c 2f3d 396f 763c 19d8 2c3d 0ae8 34bd
00000080: d3fa 79bd 5980 46be 43d0 c5bd 86d9 9abd
00000090: edad e33d 9211 6f3d 4609 bc3d 7b10 813d
000000a0: be9c bd3d 0582 f73c 6f3f 093d 573e cb3d
000000b0: 1db2 d03c 48fb fd3d 53f8 7fbd d2cb fabd
000000c0: 23cd 59bd fcd9 06bd 5b74 b43c 910c b2bd
000000d0: 430d ccbd 51a3 d3bd 9641 c7bc 8aca 89bc
000000e0: 82dd f0bd e213 9e3b 495a 89bd 708a 38be
000000f0: e47b 823d 8add a73d 8005 2cbd c1ef 493d
00000100: 5c70 993d 1759 663c 2f56 5d3d 1215 63ba
00000110: b2b3 003a 31be 303d cab9 923c 67e1 d93b
00000120: 2760 49bd 556c 183d b7c7 35bd c57f 7cbd
00000130: 9b1a 1f3d 6745 843c a5d9 03bd d7a7 f13d
00000140: 4fb6 5d3d b7e7 9c3d 9a9c 553d 1756 773d
00000150: 3e1c c63d 5436 91bc 55ad 3dbd 4743 5dbd
00000160: cbab 32bd 3ab8 72bd 6895 fa3c d7e0 953d
00000170: 8d0e cfbc 4364 a0bb 8f03 24bd f130 7ebd
00000180: 96b8 973d a67c 4d3b 9e20 773d e573 3bbd
00000190: 0da9 0ebd d720 43bc a8ba 15be 8812 45bc
000001a0: 4e14 65bc 051a 8cbd fcae b53c fad4 0cbd
000001b0: 5c09 a3bd f875 c7b8 425f fa3c 042b fe3c
000001c0: b8da 153d 73ba 9dbc c598 d73c 7b6c 983d
000001d0: 5556 143e 351b 83bd 563f 9e3a ac20 a83c
000001e0: 0b15 d2bc 723b 9a3b cfef 85bc e56b 863d
000001f0: 170b ed3c c14b 4c3b c505 88bd a95a 27bd
00000200: f0a7 b33d ff12 8dbd dec9 a9bc 0697 b43d
00000210: 21ee c2bd 5c59 86bd 1c0e a23d c5ab 733d
00000220: 62ba 053d b9ef a73c 2dea 013e 68e9 433d
00000230: 4090 25bd f755 363d ad62 54bd 1e60 eebc
00000240: 1240 203d 432e 4b3d 4a7e ba3c 5b41 293d
00000250: 43ba 933c c46e 973c 4fa9 f03a 6459 b03c
00000260: e3d8 78bc 27cc 7cbc ed5a b6bd 9730 40bd
00000270: e567 693d d7e7 d0bc 43cf a33d ebb0 babc
00000280: 27e9 23bd 7eb5 99bc 44a9 e43d eb8e 9bbc
00000290: 9f0e a0bd 5a03 bb3c 11a3 adbd 8ec5 15bd
000002a0: 6ff3 273d 9730 a9bd d7c9 1dbc 575b 08be
000002b0: 4ebd bfbd 9bda 1b3d 1fca c13c ce65 163d
000002c0: ccf2 86bd 97c8 4fbc 7c74 6ebd 47c3 b5bd
000002d0: 8a4e b13b 5a1a 6e3c 8011 72bd b173 7d3d
000002e0: 20db 333d 41fc 29bc 2880 093d fc6a 203d
000002f0: 31fc 83bc 2842 fa3d 9101 733d b409 7fbc
00000300: b1dc ec3b f65a 443b adde 3dbc b6f3 1dbd
00000310: d920 e1bc b010 193d 920f 36bd 4d2c 113e
00000320: 4dd5 c83a 4997 babd c882 f93d eaa0 0abe
00000330: e258 9fbc 5548 883d 8057 19be 9353 303e
00000340: 71a4 b33d ac1a 3fbd b045 9ebc b73d bdbd
00000350: 5b41 6bbd d7ad 00bd 79b5 163d 4166 d2bd
00000360: 9956 313c c9cb 083e c829 d83d fd33 aa3d
00000370: ee29 8bbd 89ae a9bd 1089 08bd 0c33 acbd
00000380: 5f2b cc3a ab6c 2d3d b277 71bd 7479 c5bb
00000390: 3a4e 233d ca1e 163d 18de 1a3c 39c3 88ba
000003a0: bbd9 9c3d b8df cebd 9be0 7a3d 2bbc 253d
000003b0: 3d4a 8b3c b287 cb3c ed9b c8bc 3b2a 3ebd
000003c0: 0e9a ff3a 61be 103c c0dc 86bd f9a7 09bd
000003d0: d732 d8bc 3214 41be 9503 4fbd 6710 27be
000003e0: 2b77 14be 2812 b5bd d548 d9bd 8da8 a2bd
000003f0: b84a 8fbc 4f4d 3abd ea0b 903b 978c 92bd

dw.nw.3.bias f4 [64]
-0.005743746 -0.020617316 0.040371805 0.016210917 -0.02927528 -0.017476374 0.037315607 -0.036592256
-0.008341615 -0.022590496 0.010591119 -0.017493112 0.017946204 0.025093805 -0.040774446 0.011789442
-0.024932327 -0.01831513 0.0344412 -0.010849051 -0.03914727 -0.022627538 0.018469011 -0.011870108
0.03652575 0.015995566 -0.009751922 -0.0024751192 0.0295345 -0.026053 -0.0042330017 0.03109793
0.028899612 0.008206086 0.0020889319 0.010503569 0.011478017 0.03013881 0.008079895 0.008689064
-0.005082469 0.0358322 -0.031987652 -0.010804015 -0.016493782 0.040698707 -0.029142626 0.037888624
0.010721386 0.015943307 0.0078440355 -0.0102430135 -0.011634034 0.03344158 -0.03820477 -0.008771604
0.015342592 0.022758268 0.028372945 0.0072830017 -0.036683124 -0.01514466 -0.025986627 -0.010965652
00000000: 0936 bcbb a5e5 a8bc e85c 253d c2cc 843c
00000010: b6d2 efbc 9d2a 8fbc 40d8 183d c3e1 15bd
00000020: 45ab 08bc b40f b9bc 5f86 2d3c b74d 8fbc
00000030: eb03 933c 8691 cd3c 1b03 27bd 8128 413c
00000040: e13e ccbc 9d09 96bc 3712 0d3d 38c0 31bc
00000050: e358 20bd 635d b9bc 534c 973c d77a 42bc
00000060: 069c 153d 2209 833c 87c6 1fbc 9c35 22bb
00000070: 56f2 f13c 1a6d d5bc feb4 8abb 16c1 fe3c
00000080: e1be ec3c d272 063c 76e6 083b 2917 2c3c
00000090: 4b0e 3c3c aae5 f63c 8961 043c 935c 0e3c
000000a0: d78a a6bb c9c4 123d 7c05 03bd 5303 31bc
000000b0: f81d 87bc b0b3 263d 84bc eebc 1a31 1b3d
000000c0: c1a8 2f3c 8a9b 823c 4584 003c 50d2 27bc
000000d0: ad9c 3ebc 0afa 083d 9b7c 1cbd c6b6 0fbc
000000e0: 7f5f 7b3c 8c6f ba3c 616e e83c 3fa6 ee3b
000000f0: 0b41 16bd 4f21 78bc e8e1 d4bc 47a9 33bc

dw.nw.4.weight f4 [64]
0.9083534 1.076787 0.88018924 1.1873344 1.1197379 0.9842391 0.914826 1.0049036
1.0662081 0.99219084 0.9171163 1.0822757 0.7738635 0.7321295 0.8157723 0.93553215
1.1108967 0.9342067 0.8671025 0.80371845 1.13944 0.8236235 0.91067344 0.8824999
1.0596135 0.83825976 0.8896673 1.0437229 0.7944541 0.77679914 0.85484976 1.0713404
0.79780614 0.8573621 0.94729185 1.2061138 0.76894045 0.9120656 1.1909202 0.8698789
0.8794259 1.8719528 0.91425544 0.8727987 0.7806292 1.0400239 1.0822302 0.916404
1.0126874 1.0734442 0.8010007 0.8374478 0.9766109 0.8259191 0.77178913 0.862671
1.2989937 0.86006075 0.9745034 0.87837356 0.8034943 1.209513 0.8459247 0.88009393
00000000: d989 683f 28d4 893f 1554 613f 93fa 973f
00000010: 9253 8f3f 18f7 7b3f 0932 6a3f aea0 803f
00000020: 8279 883f 3800 7e3f 22c8 6a3f 0388 8a3f
00000030: eb1b 463f d76c 3b3f 74d6 503f 097f 6f3f
00000040: dd31 8e3f 2c28 6f3f 6efa 5d3f 7ec0 4d3f
00000050: 2bd9 913f fdd8 523f e521 693f 83eb 613f
00000060: 6aa1 873f 3198 563f 3cc1 633f b698 853f
00000070: 5861 4b3f 4fdc 463f 6fd7 5a3f af21 893f
00000080: 063d 4c3f 157c 5b3f b881 723f f061 9a3f
00000090: 48d9 443f 227d 693f 1370 983f 62b0 5e3f
000000a0: 0e22 613f 269c ef3f a50c 6a3f bc6f 5f3f
000000b0: 51d7 473f 811f 853f 8586 8a3f 7499 6a3f
000000c0: be9f 813f 9f66 893f 620e 4d3f fb62 563f
000000d0: 2c03 7a3f 6f6f 533f f993 453f 02d8 5c3f
000000e0: 6d45 a63f f12c 5c3f 0e79 793f 17dd 603f
000000f0: cdb1 4d3f 52d1 9a3f 858e 583f d64d 613f

dw.nw.4.bias f4 [64]
-0.1851152 -0.13482043 -0.33067968 0.03765508 0.03432948 -0.04747397 -0.09553828 -0.11524852
-0.15864249 0.018740341 -0.5920767 -0.15517794 -0.17762502 0.5159454 0.08482449 -0.449937
-0.16414931 -0.066869564 -0.27298665 -0.05479579 -0.46338874 -0.23955919 -0.16802521 0.04856776
-0.25668725 0.22516793 0.034117747 -0.008391383 -0.20800623 0.18342598 0.04680928 -0.013056926
0.058553837 -0.027428918 -0.13589682 -0.10910781 -0.1066281 -0.0016656041 -0.12259382 -0.025662722
-0.34078622 -0.5118834 0.11190679 0.023510555 0.0661506 0.07298011 -0.7100931 -0.27850586
-0.073326916 0.3325371 -0.18591413 0.45767194 -0.14232543 -0.43042925 -0.2346391 -0.124523595
-0.21231802 -0.11871169 -0.10216132 -0.12948157 -0.22984327 -0.013716431 -0.44563282 0.1680884
00000000: d78e 3dbe 5e0e 0abe d94e a9be 373c 1a3d
00000010: 129d 0c3d 1174 42bd 93a9 c3bd 6b07 ecbd
00000020: 2d73 22be 5885 993c 5792 17bf f7e6 1ebe
00000030: 55e3 35be ff14 043f 76b8 ad3d 245e e6be
00000040: c216 28be e9f2 88bd e8c4 8bbe 8d71 60bd
00000050: 4a41 edbe 014f 75be cd0e 2cbe fdee 463d
00000060: 836c 83be 6c92 663e 0dbf 0b3d 037c 09bc
00000070: 96ff 54be 05d4 3b3e 16bb 3f3d b8ec 55bc
00000080: 26d6 6f3d 9cb2 e0bc 8928 0bbe ea73 dfbd
00000090: d55f dabd 6650 daba 7812 fbbd a13a d2bc
000000a0: 887b aebe ca0a 03bf 632f e53d 3599 c03c
000000b0: f779 873d 9976 953d a9c8 35bf 5298 8ebe
000000c0: 6c2c 96bd 4e42 aa3e 4660 3ebe fa53 ea3e
000000d0: c2bd 11be 3961 dcbe 3b45 70be 3a06 ffbd
000000e0: e569 59be 1d1f f3bd f439 d1bd d196 04be
000000f0: 095c 6bbe e2ba 60bc fc29 e4be 5e1f 2c3e

dw.nw.4.running_mean f4 [64]
-0.28932366 -2.332783 1.9928459 -2.266741 -3.5885067 -1.5878786 -1.6119341 -0.055617243
-2.3693743 -1.304027 0.9472247 -2.5882404 1.6284603 -0.446099 0.9894575 -0.16701514
-3.0339713 -0.3188339 -0.77252036 -0.23281284 -0.6569636 0.41766772 3.426808 -1.6438622
-3.521166 -0.27103207 -0.27185944 -1.7317437 -0.4339448 -0.71669626 -1.055504 -1.6855563
0.51469547 1.6669451 -2.3566306 -0.6007943 -0.24892141 -2.1325285 -4.212966 -0.8491538
1.8502566 -2.196596 0.035705328 0.15806971 -0.7895483 -1.8822104 0.3093898 2.96779
-0.4979111 -1.9549292 0.531079 -0.48235723 -2.0475047 2.0399332 0.8238501 0.025472956
-3.6671793 0.19989763 -2.536773 2.0026922 1.306106 -2.0057657 2.6471384 -0.53491795
00000000: 3b22 94be 514c 15c0 9315 ff3f 4912 11c0
00000010: 18aa 65c0 9b3f cbbf db53 cebf e8ce 63bd
00000020: d4a3 17c0 5bea a6bf 517d 723f bba5 25c0
00000030: 6371 d03f 1767 e4be 164d 7d3f 0406 2bbe
00000040: 962c 42c0 323e a3be e5c3 45bf 7d66 6ebe
00000050: c42e 28bf 8bd8 d53e d350 5b40 146a d2bf
00000060: c95a 61c0 b7c4 8abe 2931 8bbe c7a9 ddbf
00000070: 032e debe 6879 37bf c11a 87bf 4fc0 d7bf
00000080: 15c3 033f 755e d53f 09d3 16c0 a8cd 19bf
00000090: 41e5 7ebe 597b 08c0 9ed0 86c0 2562 59bf
000000a0: 35d5 ec3f 0795 0cc0 c03f 123d 07dd 213e
000000b0: d61f 4abf 45ec f0bf 5768 9e3e 45f0 3d40
000000c0: 34ee febe 1f3b fabf cbf4 073f 87f7 f6be
000000d0: 510a 03c0 448e 0240 d7e7 523f a9ac d03c
000000e0: 11b3 6ac0 f7b1 4c3e 7d5a 22c0 1c2c 0040
000000f0: 7b2e a73f 775e 00c0 b76a 2940 62f0 08bf

dw.nw.4.running_var f4 [64]
2.3441184 6.394482 4.211639 7.735167 10.212795 8.387104 2.7986553 3.2645268
5.7531767 3.2132974 2.5801256 17.011303 3.3777187 2.366204 5.6550727 2.6234634
8.9344225 3.2584562 2.564251 2.0299582 2.3956215 3.3439062 11.658358 3.4185777
11.159057 3.0044923 2.937169 4.2643695 2.3559487 1.7993513 2.4609413 3.0011203
2.5330505 4.3863673 9.798166 3.448827 2.5412133 5.0260296 15.59689 2.3065598
3.0074732 4.2345104 4.3267503 4.556951 1.6971495 7.7383943 3.2293205 6.669715
2.2590835 6.796493 1.6421709 2.727802 5.8742137 2.4624574 1.8140156 3.8503306
7.2725067 5.230832 3.851535 6.417586 3.0709589 5.773345 3.2002754 2.8419557
00000000: 0906 1640 999f cc40 bfc5 8640 7d86 f740
00000010: 9c67 2341 9431 0641 2b1d 3340 02ee 5040
00000020: 061a b840 aaa6 4d40 c720 2540 2617 8841
00000030: 8b2c 5840 e36f 1740 5bf6 b440 d3e6 2740
00000040: 65f3 0e41 8c8a 5040 b01c 2440 d6ea 0140
00000050: dd51 1940 8f02 5640 a288 3a41 fac9 5a40
00000060: 7f8b 3241 9a49 4040 94fa 3b40 b775 8840
00000070: ddc7 1640 2551 e63f 1080 1d40 5b12 4040
00000080: 801d 2240 1f5d 8c40 4ac5 1c41 95b9 5c40
00000090: 3da3 2240 3cd5 a040 dd8c 7941 ad9e 1340
000000a0: 717a 4040 1c81 8740 bd74 8a40 8bd2 9140
000000b0: 323c d93f eda0 f740 30ad 4e40 4e6e d540
000000c0: d394 1040 df7c d940 a832 d23f 4f94 2e40
000000d0: 8ff9 bb40 e798 1d40 aa31 e83f d16b 7640
000000e0: 60b8 e840 fa62 a740 8d7f 7640 dd5c cd40
000000f0: 978a 4440 3ebf b840 50d1 4c40 9ae2 3540

dw.nw.6.weight f4 [64, 64, 3, 3]
0.09852036 0.1743834 0.11469462 0.060566783 0.06368011 0.07390977 0.033628073 -0.023484739
0.033131786 0.016587764 0.027399138 0.001691924 -0.018690787 -0.043050833 0.030069664 -0.024415344
-0.017694205 0.033564035 0.11490564 0.014316189 -0.004953394 0.025681773 0.0056425105 -0.095330335
0.018980287 -0.08619157 -0.109450534 0.16308236 0.08031323 0.10759775 0.12821004 0.075817116
0.09392604 0.12126448 0.034014747 -0.043915264 0.03242665 -0.076482624 0.040698886 0.03015329
-0.09057822 -0.12058136 -0.0012664481 -0.09647341 -0.04027666 0.040556874 0.02645779 0.028008694
-0.015296173 0.010715483 0.016425049 0.037900582 0.051740296 -0.00807244 -0.033037696 0.042437404
-0.0524998 -0.056368113 -0.0014388515 0.01712879 0.013377899 0.09361013 0.03567234 -0.040688492
-0.055614445 -0.14999044 0.00046736788 -0.02685701 -0.10715826 -0.11920316 -0.09209795 -0.10485911
0.10102178 0.028600644 0.039736435 0.10073724 0.07941693 0.09708439 0.09979574 0.03041839
0.039854743 -0.09343337 -0.06415961 0.019461872 -0.020891486 -0.0138861695 0.05082584 -0.068856105
-0.014333822 0.056232456 0.16713968 0.065922104 -0.049950935 0.098904066 -0.0153166 -0.015217998
0.0129931485 0.041080922 0.068597324 0.0088362135 0.025289955 0.09122027 0.03202308 0.03111254
0.07906899 0.056140523 0.03616784 0.08377954 -0.0091373725 0.009751588 -0.024133936 0.061094753
-0.0077525214 -0.01024538 0.026869126 0.042784613 -0.06349326 0.014215945 0.03859176 -0.04826848
0.041622635 0.05391943 0.029410392 -0.068595536 0.09585504 -0.0059934044 -0.00063001167 -0.039727602
-0.044914033 -0.02748748 -0.027250132 -0.01315106 0.020281035 -0.014868932 -0.008954551 -0.024132108
-0.0120324595 -0.07857532 -0.06589835 -0.05612662 -0.120736346 -0.047370236 -0.029684952 -0.008457178
0.033089645 0.12813935 0.13188256 0.0075260946 0.025986126 -0.02034387 0.021187752 0.0061925044
0.030214822 0.050235603 0.014533428 -0.013828096 0.066893585 0.030390257 0.07558712 0.059232906
0.04604708 0.097052485 -0.053388137 0.033737898 0.04082853 -0.030246643 0.035131678 0.046215955
-0.009410559 0.023967331 0.004624862 -0.08969659 0.01719272 0.005172762 -0.0561935 0.006266817
0.026736911 -0.06499417 -0.027995521 -0.02090157 -0.11777767 -0.11491549 -0.13950817 -0.041765433
-0.13920832 -0.090596266 -0.043066293 -0.12000753 -0.15374994 0.088247105 -0.005092308 -0.030375026
-0.017032092 -0.0432619 -0.0064161574 -0.008187709 -0.002350277 0.0491575 0.070686705 0.010231226
0.025878234 0.07416033 0.0133514935 -0.02710293 0.050559614 0.05133062 0.029480767 -0.06083774
-0.022346113 0.0039900453 -0.017872583 -0.033482764 0.003745826 0.03463554 -0.0006538676 -0.024666382
-0.011982846 -0.018000847 0.051771197 -0.04342806 0.01017394 0.06625076 -0.11286906 -0.032195766
-0.0221276 0.11573695 0.0411939 0.021210233 0.12895514 0.036201652 0.0035529993 -0.0063444264
0.01110414 0.07330037 0.068562604 0.08878843 0.11665845 0.051586237 -0.02276474 -0.07363805
-0.0003359034 -0.03295986 -0.025953524 0.08525016 0.09067881 -0.043956358 0.06825063 0.027460674
-0.035643965 0.10041886 -0.04174581 -0.03631183 -0.03941858 -0.025481474 -0.04234136 -0.09298948
00000000: 0bc5 c93d 9091 323e 03e5 ea3d e014 783d
00000010: b86a 823d 015e 973d 97bd 093d 1163 c0bc
00000020: 32b5 073d 10e3 873c 2874 e03c 8cc3 dd3a
00000030: 6c1d 99bc 1256 30bd a854 f63c b002 c8bc
00000040: 70f3 90bc 717a 093d a653 eb3d 738e 6a3c
00000050: 1550 a2bb 9562 d23c cfe4 b83b 8d3c c3bd
00000060: 8c7c 9b3c 3585 b0bd 9a27 e0bd 10ff 263e
00000070: 437b a43d 365c dc3d 7e49 033e 0146 9b3d
00000080: 4c5c c03d 8359 f83d 0c53 0b3d 7ee0 33bd
00000090: cfd1 043d eca2 9cbd e0b3 263d 0804 f73c
000000a0: 1381 b9bd 5cf3 f6bd f2fe a5ba da93 c5bd
000000b0: 24f9 24bd f71e 263d 02be d83c 7d72 e53c
000000c0: cd9c 7abc fe8f 2f3c d38d 863c a43d 1b3d
000000d0: a2ed 533d 4442 04bc 8952 07bd d8d2 2d3d
000000e0: 080a 57bd 40e2 66bd d897 bcba ad51 8c3c
000000f0: fa2e 5b3c abb6 bf3d 291d 123d faa8 26bd
00000100: f9cb 63bd 1897 19be 0e09 f539 3b03 dcbc
00000110: ca75 dbbd c920 f4bd da9d bcbd 60c0 d6bd
00000120: 82e4 ce3d e64b ea3c acc2 223d 534f ce3d
00000130: 58a5 a23d 2ed4 c63d b561 cc3d fd2f f93c
00000140: ba3e 233d ff59 bfbd 1d66 83bd 816e 9f3c
00000150: 9f24 abbc d182 63bc c22e 503d 6e04 8dbd
00000160: 68d8 6abc 0154 663d aa26 2b3e 2b02 873d
00000170: 5a99 4cbd 378e ca3d 7af2 7abc e954 79bc
00000180: 37e1 543c 7844 283d c17c 8c3d c4c5 103c
00000190: e12c cf3c b1d1 ba3d a22a 033d badf fe3c
000001a0: ecee a13d 9bf3 653d bb24 143d 9c94 ab3d
000001b0: ebb4 15bc 20c5 1f3c 88b4 c5bc 7e3e 7a3d
000001c0: dd08 febb 3ddc 27bc a41c dc3c eb3e 2f3d
000001d0: c108 82bd ffe9 683c 6512 1e3d 2bb5 45bd
000001e0: 7f7c 2a3d 9fda 5c3d 10ee f03c d17b 8cbd
000001f0: a64f c43d 5264 c4bb 5e27 25ba 69b9 22bd
00000200: c7f7 37bd 6c2d e1bc ab3b dfbc 8b77 57bc
00000210: 6a24 a63c d29c 73bc 1cb6 12bc b3b0 c5bc
00000220: cb23 45bc 19ec a0bd b7f5 86bd 07e5 65bd
00000230: 9e44 f7bd 4b07 42bd db2d f3bc fa8f 0abc
00000240: 0289 073d f636 033e 390c 073e 759d f63b
00000250: dbe0 d43c 30a8 a6bc f091 ad3c 7eea ca3b
00000260: 1385 f73c d9c3 4d3d 9d1d 6e3c 3d8f 62bc
00000270: 81ff 883d fdf4 f83c 6ccd 9a3d 349e 723d
00000280: dd9b 3c3d 74c3 c63d 85ad 5abd c030 0a3d
00000290: d13b 273d cfc7 f7bc 3ce6 0f3d f14c 3d3d
000002a0: bf2e 1abc 2357 c43c 288c 973b d9b2 b7bd
000002b0: bfd7 8c3c 4680 a93b 282b 66bd df59 cd3b
000002c0: 5e07 db3c aa1b 85bd dd56 e5bc c539 abbc
000002d0: 6b35 f1bd d058 ebbd 3bdb 0ebe 3b12 2bbd
000002e0: a08c 0ebe 898a b9bd 4866 30bd 82c6 f5bd
000002f0: a070 1dbe e6ba b43d 60dd a6bb 0cd5 f8bc
00000300: e386 8bbc 6433 31bd a13e d2bb be25 06bc
00000310: 1b07 1abb 6059 493d 31c4 903d dfa0 273c
00000320: 97fe d33c 5fe1 973d 39c0 5a3c f706 debc
00000330: 9917 4f3d 0e40 523d a681 f13c fe30 79bd
00000340: 320f b7bc edbe 823b 8669 92bc 3925 09bd
00000350: 887c 753b ffdd 0d3d 5068 2bba 2711 cabc
00000360: b353 44bc 8376 93bc 090e 543d 9fe1 31bd
00000370: 99b0 263c 7aae 873d e527 e7bd b5df 03bd
00000380: f144 b5bc 7e07 ed3d efba 283d 15c1 ad3c
00000390: d10c 043e 2f48 143d 70d9 683b e8e4 cfbb
000003a0: 24ee 353c 811e 963d 8d6a 8c3d b5d6 b53d
000003b0: a0ea ee3d 174c 533d 1f7d babc 8ccf 96bd
000003c0: 311c b0b9 eb00 07bd 7c9c d4bc a397 ae3d
000003d0: d0b5 b93d 950b 34bd fcc6 8b3d 35f5 e03c
000003e0: 68ff 11bd 67a8 cd3d a8fd 2abd b7bb 14bd
000003f0: 6075 21bd 86be d0bc 226e 2dbd 4571 bebd

dw.nw.6.bias f4 [64]
-0.038771242 -0.035323814 0.011022261 -0.028145036 -0.0054124594 -0.032440804 -0.009688812 0.013013862
-0.015859127 -0.006140788 -0.010469447 -0.013335001 -0.03639083 0.0071579106 -0.03408399 -0.010841754
0.010683274 -0.041179698 -0.0046046684 -0.0402664 0.011046525 -4.7514923e-06 0.031560123 0.005229039
0.026046894 0.0034487026 0.032431573 -0.0023592496 -0.014160731 -0.021080004 0.039689444 0.02974039
-0.010339781 -0.022759356 -0.023018772 0.030320765 -0.008741904 -0.03772321 0.010434893 0.032568607
-0.020058692 0.018593153 -0.001209387 0.015529445 0.013377865 0.0023725766 -0.013474674 0.007397285
0.0027545 0.02683946 0.0037116436 0.028169695 -0.0059988876 0.024576938 -0.012672806 -0.030640671
0.0074961293 0.024061846 0.005208065 0.017717756 0.023322131 0.016368229 0.015239874 0.00869495
00000000: 98ce 1ebd b4af 10bd b796 343c 6b90 e6bc
00000010: 005b b1bb a6e0 04bd d3bd 1ebc 1838 553c
00000020: 00eb 81bc aa38 c9bb 0b88 2bbc 0c7b 5abc
00000030: 8d0e 15bd e88c ea3b a79b 0bbd 9da1 31bc
00000040: e608 2f3c 0bac 28bd c2e2 96bb 61ee 24bd
00000050: 7cfc 343c 026f 9fb6 3045 013d 5c58 ab3b
00000060: 4c60 d53c a103 623b f8d6 043d a49d 1abb
00000070: 6902 68bc f9af acbc 6691 223d 1ea2 f33c
00000080: 2f68 29bc d471 babc dd91 bcbc 4163 f83c
00000090: 343a 0fbc a783 1abd 1df7 2a3c a966 053d
000000a0: 2052 a4bc ab50 983c 4b84 9eba 376f 7e3c
000000b0: d52e 5b3c 3b7d 1b3b e1c4 5cbc ed64 f23b
000000c0: d784 343b 6dde db3c 0c3f 733b 22c4 e63c
000000d0: 5192 c4bb 9355 c93c 9aa1 4fbc 2502 fbbc
000000e0: 17a2 f53b 591d c53c 6aa8 aa3b d424 913c
000000f0: 0e0e bf3c aa16 863c aab0 793c 4375 0e3c

dw.nw.7.weight f4 [64]
0.98408604 0.99847406 0.94471365 0.9768656 0.9018867 0.96262455 0.96096194 0.7548542
0.9860958 0.9452991 0.906642 0.9618259 0.9310315 0.90020686 0.8033941 1.049108
1.4659635 0.9708521 0.94069946 0.8158356 1.139246 0.8566255 0.95456403 0.9252042
0.9321901 1.0700756 0.9554526 0.9773412 1.0826021 1.0714837 1.1068778 0.9051829
1.1243621 1.061261 1.0270962 1.1275823 0.9201809 1.0252594 0.93636525 1.0175637
0.98553634 0.8751255 0.9182925 0.9679886 0.9388572 0.9022447 0.9088244 0.9653804
0.9505796 1.0666231 0.89006746 0.9998434 0.95398176 0.92805123 0.89146584 0.8687345
0.98975414 0.8258252 0.8462349 0.929521 1.1745778 0.966521 0.9217335 1.0507966
00000000: 10ed 7b3f ff9b 7f3f c1d8 713f dd13 7a3f
00000010: 0ce2 663f 906e 763f 9a01 763f 203e 413f
00000020: c670 7c3f 1fff 713f b119 683f 393a 763f
00000030: 1558 6e3f f573 663f 3cab 4d3f 2c49 863f
00000040: b1a4 bb3f c389 783f aed1 703f 9ada 503f
00000050: d0d2 913f cf4b 5b3f 4f5e 743f 2fda 6c3f
00000060: 03a4 6e3f 3df8 883f 8b98 743f 0833 7a3f
00000070: b592 8a3f 6126 893f 2cae 8d3f 11ba 673f
00000080: 19eb 8f3f 67d7 873f e377 833f 9e54 903f
00000090: fa90 6b3f b33b 833f a2b5 6f3f 873f 823f
000000a0: 1c4c 7c3f 3a08 603f 3815 6b3f 1ace 773f
000000b0: f258 703f 82f9 663f b7a8 683f 2b23 773f
000000c0: 2f59 733f 1b87 883f 76db 633f bdf5 7f3f
000000d0: 2638 743f c494 6d3f 1b37 643f 6265 5e3f
000000e0: 8760 7d3f 4869 533f daa2 583f 17f5 6d3f
000000f0: 9158 963f ec6d 773f baf6 6b3f 8180 863f

dw.nw.7.bias f4 [64]
-0.3651487 -0.1972975 -0.65906334 0.0835803 -0.3327172 -0.10218607 -0.2104408 -0.12402436
-0.49734652 -0.78527975 0.04806274 -0.35679886 -0.23611711 -0.35108012 -0.23578542 -0.1523212
-0.68868303 -0.20532772 -0.5779337 0.027789548 0.20722586 -0.09741892 -0.5596662 -0.35430306
-0.57845515 -0.011340093 -0.24902944 -0.24536955 0.19246496 0.034756627 0.3021396 -0.41556215
0.13612702 -0.12428568 -0.0066298246 0.050924078 0.0029680703 -0.71525836 -0.7259888 -0.0015716333
-0.1744808 -0.2109634 -0.18323813 -0.09723632 -0.049391102 0.02531767 -0.45215008 -1.0791215
-0.08567159 0.14506096 -0.26077887 -0.09015605 -0.41504884 -0.13083406 -0.21083742 -0.39393786
-0.84901154 0.22162296 -0.261761 -0.084673576 0.35111237 -0.31785235 -0.41543683 0.03158957
00000000: c5f4 babe 5b08 4abe 60b8 28bf 262c ab3d
00000010: e959 aabe ee46 d1bd cb7d 57be 7c00 febd
00000020: 34a4 febe 1808 49bf 70dd 443d 57ae b6be
00000030: afc8 71be c6c0 b3be bc71 71be 17fa 1bbe
00000040: 884d 30bf 6e41 52be 77f3 13bf e8a6 e33c
00000050: 0433 543e 9283 c7bd 4946 0fbf 3667 b5be
00000060: a315 14bf cccb 39bc 9301 7fbe 2842 7bbe
00000070: 8915 453e f75c 0e3d 0bb2 9a3e 90c4 d4be
00000080: e264 0b3e 7e89 febd 003f d9bb c495 503d
00000090: f583 423b 2c1b 37bf 67da 39bf 43ff cdba
000000a0: 18ab 32be ca06 58be c7a2 3bbe d623 c7bd
000000b0: 534e 4abd 0167 cf3c 3780 e7be a720 8abf
000000c0: 9674 afbd dc8a 143e cf84 85be bca3 b8bd
000000d0: 4881 d4be 5df9 05be c4e5 57be 39b2 c9be
000000e0: d258 59bf 21f1 623e 8a05 86be 5769 adbd
000000f0: 00c5 b33e 8bbd a2be 23b4 d4be 1164 013d

dw.nw.7.running_mean f4 [64]
1.2860414 -2.0638106 1.2478261 -0.5518907 -1.162466 -2.532886 -2.1254473 -0.23022383
0.079277866 2.3950024 -1.1287928 -0.35929525 -1.7432368 -1.1027759 -0.5068051 -2.6297374
-0.030786032 2.0611653 0.9419832 -1.2709193 -1.9061825 0.23802166 2.030758 -1.0781825
0.3572052 -2.6559062 -0.76263934 -0.1438359 -1.7224433 -1.7557373 -0.8245084 -0.635667
-1.2619296 -3.2728753 -1.8680516 -1.9468294 1.1757337 0.6902097 1.11406 -2.2266865
-1.7729591 -0.46771392 -1.054376 -0.16996108 -0.9689801 -0.9820532 0.53292745 2.3001323
1.2540792 -0.9314359 0.051279623 -2.4714296 -0.18304673 1.7870916 0.39577734 0.9445748
1.9265796 -0.58971506 -0.4666019 -0.65093136 0.06098978 0.0761864 2.1861734 -2.1191518
00000000: 019d a43f 7915 04c0 c4b8 9f3f b548 0dbf
00000010: b0cb 94bf ce1a 22c0 5407 08c0 ccbf 6bbe
00000020: 6f5c a23d b847 1940 487c 90bf 8cf5 b7be
00000030: 6222 dfbf c327 8dbf fbbd 01bf 9e4d 28c0
00000040: fd32 fcbc 22ea 0340 d025 713f 7cad a2bf
00000050: cafd f3bf f3bb 733e f0f7 0140 e201 8abf
00000060: 9ae3 b63e 5efa 29c0 553c 43bf b849 13be
00000070: 0679 dcbf 00bc e0bf fc12 53bf 13bb 22bf
00000080: e986 a1bf ca76 51c0 511c efbf b531 f9bf
00000090: 717e 963f 95b1 303f 8599 8e3f 0882 0ec0
000000a0: 53f0 e2bf 3378 efbe cbf5 86bf 470a 2ebe
000000b0: 140f 78bf d767 7bbf ef6d 083f 5e35 1340
000000c0: ab85 a03f 9572 6ebf 950a 523d e72b 1ec0
000000d0: 9a70 3bbe 6bbf e43f 54a3 ca3e a7cf 713f
000000e0: 299a f63f 91f7 16bf 72e6 eebe 70a3 26bf
000000f0: 6bd0 793d 9e07 9c3d 44ea 0b40 2fa0 07c0

dw.nw.7.running_var f4 [64]
2.4457712 1.8504393 1.4494112 3.0754716 1.2715504 12.040397 3.8382258 0.83381873
1.1085562 1.5932076 1.5349745 1.2855666 2.0719342 1.0624396 1.06485 3.1570997
0.62654763 2.2852547 1.2129972 1.0388584 3.9744515 1.1789966 7.9037056 3.1833253
1.6680131 3.0580616 2.284621 2.4725842 1.4519749 3.341363 6.099782 1.3937371
5.219072 2.5162337 2.786935 2.8770747 4.1518807 2.8213897 1.3531371 1.7532654
1.1647235 1.5378845 1.745985 2.0814345 2.357016 1.7510474 1.0551338 1.163922
2.8901048 4.1425486 1.2505006 2.8660731 1.4027219 12.497472 1.6636198 1.671407
1.4683449 1.4983042 1.0401725 1.8623776 5.618415 1.3629694 2.5081825 4.099451
00000000: 8487 1c40 32db ec3f 4e86 b93f 87d4 4440
00000010: 2ac2 a23f 77a5 4041 7ea5 7540 2575 553f
00000020: 2be5 8d3f 3aee cb3f 0b7a c43f 728d a43f
00000030: 929a 0440 05fe 873f 014d 883f ec0d 4a40
00000040: 6d65 203f 9d41 1240 7e43 9b3f 50f9 843f
00000050: 6a5d 7e40 5ce9 963f 28eb fc40 9abb 4b40
00000060: 7481 d53f 48b7 4340 3b37 1240 d23e 1e40
00000070: 50da b93f e4d8 5540 6a31 c340 fa65 b23f
00000080: a302 a740 f909 2140 255d 3240 fe21 3840
00000090: 35dc 8440 a691 3440 9933 ad3f 006b e03f
000000a0: a915 953f 66d9 c43f 707c df3f 3936 0540
000000b0: 5ad9 1640 5222 e03f a00e 873f 65fb 943f
000000c0: 7af7 3840 c28f 8440 6710 a03f be6d 3740
000000d0: 648c b33f a5f5 4741 7ef1 d43f aaf0 d53f
000000e0: baf2 bb3f 6fc8 bf3f 5f24 853f 6462 ee3f
000000f0: 0eca b340 c875 ae3f 1086 2040 b42e 8340

dw.nw.9.weight f4 [64, 64, 3, 3]
-0.013821285 0.012266857 0.093714 0.04009415 0.018531883 0.021798631 0.063547105 0.0107589895
0.058442708 -0.0048327195 -0.102506526 -0.02108942 0.00947089 -0.02442661 -0.03270301 -0.05340526
-0.026248965 0.015812403 0.115443155 0.04532943 0.12273522 0.05295096 0.053293623 0.14041132
0.072279684 0.06470554 0.16370359 -0.08042561 -0.091870606 -0.07952185 -0.11767348 -0.060480542
-0.020064088 -0.04884148 0.0076023466 -0.035901096 0.050207447 0.069469236 0.056488626 0.08158618
0.1005797 0.027037757 0.11317291 0.035771135 -0.007180891 -0.03959297 -0.05107955 -0.081366315
0.0018479824 -0.004243459 -0.07324763 -0.0025530376 -0.07696467 -0.08483566 0.011671661 -0.06668973
0.05923702 0.020810599 -0.06409711 0.07109035 -0.03152546 0.035029877 -0.0042057224 -0.012464754
-0.057564277 -0.029189412 -0.057781085 -0.08920926 0.013498854 -0.02572821 -0.009755485 0.05424525
0.06751283 -0.06685271 0.038874052 0.093794346 -0.03936225 0.049206283 -0.073741846 0.00095527
-0.006323446 0.025305506 0.027920056 0.02542461 0.06848889 0.084460475 0.042336017 0.051314708
0.026878571 0.10833831 -0.015538031 -0.024454957 0.033637773 0.0030879632 0.025008686 0.064355664
-0.030775454 -0.027075274 0.055176888 -0.01877867 -0.030810153 -0.0011777908 0.00029916805 -0.09678855
-0.015885947 -0.047209922 0.041924365 -0.011145129 -0.02495322 -0.038258776 -0.030916892 0.023237478
-0.007685234 -0.083673455 -0.06651095 -0.08595052 -0.080313 -0.015190486 -0.024487382 -0.05298889
-0.0122623015 -0.012956629 -0.024035694 -0.073773116 -0.03296811 0.039002422 0.053331655 0.113260016
0.065335885 0.041221857 0.050010454 0.07732213 -0.002383005 0.10590362 0.11033567 -0.0036160806
0.0025674107 -0.038572557 0.031991553 -0.020071253 -0.035897925 0.019058349 -0.063982315 -0.078239925
-0.04534923 -0.13039531 -0.019474655 -0.028081173 -0.018676555 -0.11159043 -0.021701168 0.03244895
0.01588345 -0.0026951507 0.030334486 0.022035267 0.10617702 0.030981459 -0.053254507 0.08158129
0.013215903 0.0006295931 0.07154248 0.0061088987 -0.13394214 -0.09951454 -0.018005308 -0.04028524
-0.064007126 -0.025736269 0.029172886 -0.067389324 -0.019134762 -0.05323438 0.10075091 0.0007589645
0.0044488558 0.09673482 0.005848742 0.038846415 0.0121433 0.04089182 0.037093915 0.035261173
0.049888577 0.044760663 0.0605062 -0.014425089 0.112929076 -0.015725013 0.060103383 -0.024599126
-0.03321204 0.051528487 -0.14378613 -0.02645999 -0.09595263 -0.062615 0.13296928 -0.037421685
-0.025968999 0.23729008 0.089295045 -0.075942546 0.19701041 0.049898945 0.09501811 -0.019727359
0.025311045 -0.017182497 0.033982225 0.034713842 -0.0037125326 -0.060076755 -0.0094794715 0.05468508
-0.016435333 0.01829036 -0.055900235 0.10108066 0.08111187 -0.07754067 -0.027760377 0.029494504
0.0086003365 0.09693803 0.099543795 0.09579648 0.078092 0.075667776 0.031257022 -0.027836159
0.08430099 0.020857705 0.14601398 0.022453092 0.028936353 0.05774386 0.05644025 0.052388832
0.04047127 0.00060689653 0.0027926248 -0.048866857 -0.04959026 -0.07815662 -0.06293854 -0.0743886
-0.029970193 0.01576256 0.03588828 -0.0061306744 -0.019526206 -0.05001286 0.023875326 -0.031661835
00000000: ac72 62bc edfa 483c 20ed bf3d c339 243d
00000010: 2dd0 973c 0b93 b23c fc24 823d 7946 303c
00000020: 9f61 6f3d ca5b 9ebb f1ee d1bd b8c3 acbc
00000030: cb2b 1b3c 501a c8bc 97f3 05bd 79bf 5abd
00000040: 1208 d7bc 0389 813c 766d ec3d 5aab 393d
00000050: 9a5c fb3d 1be3 583d 6a4a 5a3d fcc7 0f3e
00000060: 5f07 943d 5784 843d eaa1 273e 2fb6 a4bd
00000070: a826 bcbd 5adc a2bd cbfe f0bd 72ba 77bd
00000080: 715d a4bc 010e 48bd 1b1d f93b 070d 13bd
00000090: 53a6 4d3d e345 8e3d 9e60 673d a816 a73d
000000a0: bbfc cd3d 497e dd3c 33c7 e73d c184 123d
000000b0: ae4d ebbb 3d2c 22bd ca38 51bd 62a3 a6bd
000000c0: 0038 f23a b70c 8bbb da02 96bd dd50 27bb
000000d0: a79f 9dbd 52be adbd 7f3a 3f3c a094 88bd
000000e0: 84a2 723d fd7a aa3c 5845 83bd d197 913d
000000f0: d720 01bd 7d7b 0f3d 28d0 89bb f838 4cbc
00000100: 85c8 6bbd a21e efbc dcab 6cbd 58b3 b6bd
00000110: 4c2a 5d3c f8c3 d2bc 78d5 1fbc 4430 5e3d
00000120: 2b44 8a3d 13ea 88bd 663a 1f3d 4017 c03d
00000130: 503a 21bd 878c 493d f705 97bd 166b 7a3a
00000140: e934 cfbb 7e4d cf3c 9ab8 e43c 4647 d03c
00000150: e743 8c3d 9df9 ac3d 8868 2d3d 5f2f 523d
00000160: 7330 dc3c 7ae0 dd3d 3a93 7ebc c355 c8bc
00000170: c3c7 093d 6d5f 4a3b 04df cc3c e7cc 833d
00000180: ce1c fcbc f7cc ddbc 2901 623d bad5 99bc
00000190: 9365 fcbc 1a60 9aba a8d9 9c39 1339 c6bd
000001a0: 3f23 82bc 315f 41bd e2b8 2b3d 0f9a 36bc
000001b0: b26a ccbc 3cb5 1cbd 6c45 fdbc 865c be3c
000001c0: 6ad4 fbbb fd5c abbd e536 88bd d406 b0bd
000001d0: 247b a4bd 84e1 78bc c399 c8bc e10a 59bd
000001e0: d2e7 48bc 0a48 54bc 81e6 c4bc 5c16 97bd
000001f0: 9209 07bd 01c1 1f3d 4b72 5a3d def4 e73d
00000200: d2ce 853d 40d8 283d c3d7 4c3d 115b 9e3d
00000210: 312c 1cbb ffe3 d83d abf7 e13d c4fb 6cbb
00000220: 0142 283b 42fe 1dbd 9309 033d 786c a4bc
00000230: b409 13bd 4120 9c3c 2909 83bd 413c a0bd
00000240: 1dc0 39bd 5986 05be 5089 9fbc 7d0a e6bc
00000250: 93ff 98bc 8689 e4bd a6c6 b1bc 31e9 043d
00000260: 021e 823c 20a1 30bb 0780 f83c 4e83 b43c
00000270: 5673 d93d d4cc fd3c 6621 5abd 1714 a73d
00000280: 8487 583c 470b 253a dd84 923d 282d c83b
00000290: 2128 09be 47ce cbbd de7f 93bc 2302 25bd
000002a0: 2b16 83bd ded4 d2bc fafb ee3c 6a03 8abd
000002b0: 81c0 9cbc 4b0c 5abd 7e56 ce3d 3ff5 463a
000002c0: b5c7 913b e81c c63d cea6 bf3b 6b1d 1f3d
000002d0: b1f4 463c 2e7e 273d caef 173d 056e 103d
000002e0: f757 4c3d f556 373d 59d5 773d 3557 6cbc
000002f0: 5c47 e73d bed1 80bc f72e 763d 1b84 c9bc
00000300: 5909 08bd 890f 533d ac3c 13be 9fc2 d8bc
00000310: d082 c4bd 4b3c 80bd 1929 083e 7b47 19bd
00000320: f0bc d4bc 2cfc 723e 52e0 b63d c487 9bbd
00000330: 19bd 493e d662 4c3d db98 c23d 459b a1bc
00000340: 1c59 cf3c 4fc2 8cbc f230 0b3d 1a30 0e3d
00000350: f64d 73bb 0b13 76bd c94f 1bbc 76fd 5f3d
00000360: 64a3 86bc aad5 953c a5f7 64bd 6103 cf3d
00000370: fb1d a63d a5cd 9ebd bb69 e3bc 759e f13c
00000380: 6de8 0c3c 7287 c63d 9edd cb3d f230 c43d
00000390: b3ee 9f3d b5f7 9a3d 5d07 003d a808 e4bc
000003a0: ffa5 ac3d c7dd aa3c b084 153e 8cef b73c
000003b0: ee0b ed3c d384 6c3d e42d 673d ac95 563d
000003c0: 34c5 253d 2318 1f3a 7804 373b 9d28 48bd
000003d0: 281f 4bbd 9410 a0bd ece5 80bd 0d59 98bd
000003e0: 0d84 f5bc 7c20 813c 97ff 123d d3e3 c8bb
000003f0: 6cf5 9fbc 49da 4cbd 3096 c33c d7af 01bd

dw.nw.9.bias f4 [64]
0.004620818 -0.007406435 0.031478047 0.014474304 -0.021316234 -0.022500819 0.0062216967 0.0021953098
-0.0024421797 0.041190382 0.005472259 0.021807628 0.031870447 0.0022979472 0.018083552 -0.0028093855
-0.010106557 0.033628773 0.01157361 -0.0025044992 -0.01871782 0.016931083 -0.008539348 -0.027261877
0.0148586985 0.013331231 -0.0106242625 -0.032220937 -0.018136036 0.02575428 0.018184353 0.003985805
0.033452325 0.026363345 0.028963612 0.03610847 0.01851016 -0.018289562 -0.036956936 -0.017459737
0.0055377656 -0.038775764 -0.039451845 0.0317119 0.02888304 0.038322493 -0.009295043 0.019573651
-0.030143686 -0.030215157 0.0067518656 -0.037734736 0.0323492 0.04074826 0.032622356 -0.007356032
-0.025815452 -0.036622513 -0.004238101 -0.02014451 -0.02760479 -0.022874217 -0.010118942 -0.020646842
00000000: 3b6a 973b aeb1 f2bb 20ef 003d a225 6d3c
00000010: 629f aebc a353 b8bc 60df cb3b 30df 0f3b
00000020: fa0c 20bb 3fb7 283d a350 b33b e9a5 b23c
00000030: 968a 023d 2899 163b f523 943c ab1d 38bb
00000040: f995 25bc 53be 093d 3d9f 3d3c 8622 24bb
00000050: 1d56 99bc 0eb3 8a3c 9fe8 0bbc 4d54 dfbc
00000060: e671 733c 3c6b 5a3c 6311 2ebc 1afa 03bd
00000070: 0692 94bc a4fa d23c 5af7 943c 5b9b 823b
00000080: 4e05 093d f1f7 d73c 1945 ed3c 7ae6 133d
00000090: 9ea2 973c fed3 95bc 2860 17bd b907 8fbc
000000a0: 2576 b53b 56d3 1ebd 4298 21bd 56e4 013d
000000b0: 209c ec3c 0cf8 1c3d 3c4a 18bc ec58 a03c
000000c0: e4ef f6bc c785 f7bc c13e dd3b bd8f 1abd
000000d0: 9880 043d a6e7 263d 059f 053d de0a f1bb
000000e0: ed7a d3bc 7d01 16bd c5df 8abb 1906 a5bc
000000f0: 7123 e2bc b662 bbbc ebc9 25bc 9123 a9bc
