workspace/base_modl,k=10/checkpoints/final.epoch0049-score39.6494.pth (torch, 469234 bytes, 30 tensors)

dw.nw.0.weight f4 [64, 2, 3, 3]
000000 aa 70 69 bd c8 c2 ca bd b2 b2 aa 3e dc 91 d7 bd
       -0.05699221 -0.09900433 0.3333946 -0.10525867
000010 0b cf 00 bc 4f 66 00 be 68 34 89 be 54 3e b9 3c
       -0.007861863 -0.12539028 -0.26797795 0.022612728
000020 45 11 4d 3d d8 c3 0b bc f8 da 71 be 81 4d 0a 3e
       0.050065298 -0.0085305795 -0.23618686 0.13506128
000030 98 f9 9b be cd 95 0c bf f1 41 4e 3e 84 06 16 3e
       -0.30463862 -0.5491608 0.20142342 0.14650923
000040 e0 ff 7f be 67 62 39 be 0d 43 20 3d 80 22 2c bd
       -0.24999952 -0.18103944 0.039126445 -0.04202509
000050 0f 5b cc bd aa 8e 58 3d 32 12 a6 be 8e 09 cb bd
       -0.099783055 0.05287043 -0.32435757 -0.09913932
000060 d3 94 8b 3e 63 77 a4 3e 54 5f 52 be 88 52 b7 3d
       0.2726198 0.32122335 -0.20544177 0.089512885
000070 97 8d dc 3d c6 9a 6c be e1 22 4d 3e 6f f1 d2 be
       0.107691936 -0.23105916 0.20032836 -0.41199824
000080 bb 29 86 bd 1f 85 68 3e 76 71 fc 3d ea 5d 4e 3d
       -0.06550928 0.22707032 0.123263285 0.050382532
000090 3b e1 5f be 7e 7a fb 3d 1a af 51 be 5f aa d8 bd
       -0.21863262 0.12279223 -0.20476952 -0.10579371
0000a0 72 fc 96 3e e6 27 9c 3e 49 30 83 be 7c 36 cb be
       0.29489475 0.3049919 -0.25622776 -0.39690006
0000b0 85 bb 6f be 52 49 c0 bd a7 bd 5d be 83 6d ea b9
       -0.23411377 -0.09388985 -0.21654378 -0.0004471355
0000c0 60 0b 0a be 7a 08 5d 3e 10 d6 c8 3d 62 fa b3 3b
       -0.13480902 0.21585265 0.09806454 0.0054924944
0000d0 9a 07 1f 3e 6b 3c 05 be 66 5b 08 3d c5 53 54 be
       0.15530244 -0.13011329 0.03329029 -0.2073508
0000e0 d1 77 b7 3b 05 6b e4 3d 5c 2a 20 be b4 4f 30 be
       0.005599 0.11153225 -0.15641159 -0.17217904
0000f0 d3 25 6f 3e ab bd 6a 3e f8 f0 56 bd dc 32 30 3c
       0.23354273 0.22923915 -0.0524759 0.010754313
000100 25 f6 af be e3 24 7e bc 0c ea 88 3e a1 45 36 be
       -0.3436748 -0.015511724 0.26741064 -0.17799999
000110 29 b7 7e 3c 40 5c a1 3e db ac 87 bd b8 23 79 3b
       0.0155465985 0.31515694 -0.066247664 0.0038015675
000120 cb 77 a6 3e 16 1c a5 3e b3 47 05 be 5b cc 68 be
       0.3251327 0.3224799 -0.13015632 -0.22734205
000130 bb 51 51 3e 66 b7 a3 be a7 6e 06 be 98 c1 f5 3c
       0.20441334 -0.3197586 -0.13128148 0.02999954
000140 b6 7b 09 be d1 41 6a be 1d f5 07 3e 0b 14 19 3e
       -0.13426098 -0.2287667 0.13277097 0.14949052
000150 6f 76 3d bd 30 b1 4f 3d b0 b7 01 bd 85 68 c4 bd
       -0.046255525 0.05070609 -0.03166932 -0.09590248
000160 7b 96 47 3e 00 3e ac 3c 67 3c 6e 3d ae ef 14 3d
       0.19490997 0.021025658 0.058163073 0.03636139
000170 d8 f3 6c bc db 01 88 be 6c 64 b8 3e 41 0e 25 3e
       -0.014462434 -0.26563916 0.36014116 0.16118719
000180 0d 6d fb be 26 32 e1 bc 0f 18 49 3e 93 d2 8e bd
       -0.49106637 -0.027489733 0.19638084 -0.069737576
000190 f5 81 d4 3d c1 ce a6 3c 17 b6 e6 3c dc f6 b6 bc
       0.1037635 0.02036226 0.028163 -0.022334509
0001a0 8d e9 02 3e 4c 38 70 be 05 d7 d5 bd 26 df e1 3d
       0.12784405 -0.23458976 -0.10441402 0.1102889
0001b0 cc 3b 8b ba 67 87 45 3e 69 89 fa bc 18 b8 45 be
       -0.0010622679 0.19289933 -0.0305831 -0.19308507
0001c0 61 6b cb bd 1f 4e 44 3e 7c 34 9c 3d dc 4a 8a bd
       -0.0993259 0.19170426 0.07627198 -0.067525595
0001d0 ba 46 a3 bd 3c 9f bb 3c 0c 54 c1 bd 2f 22 9c be
       -0.079724744 0.022903077 -0.09439859 -0.3049483
0001e0 2b 7c bc 3d 2b f2 a5 3e ea b6 48 be 4e 2e e5 bb
       0.09203371 0.32411322 -0.19601026 -0.0069940453
0001f0 1c 84 85 3e 97 b5 c3 bd 5b 43 1a 3e d9 30 52 3e
       0.26077354 -0.0955612 0.15064757 0.20526446
000200 ca fd 92 be 08 2f 79 be 6a 6f 19 3e 19 2a 87 be
       -0.2870925 -0.24334347 0.14983907 -0.26399305
000210 bc fd ed 3d 61 97 23 bd 3e 70 2f 3e ae fc 48 3e
       0.116206616 -0.039939288 0.17132661 0.1962764
000220 25 f1 37 be 1b c2 77 be 42 f8 4d 3c 69 5e 60 be
       -0.17963083 -0.24195139 0.012571396 -0.21911015
000230 13 e9 33 be ac 63 07 3e 0a d6 13 3b 8c b1 98 3e
       -0.1756938 0.13221616 0.0022557997 0.29822958
000240 c0 4b a3 bd 9b 25 cd bd f9 50 27 be e5 c1 ae bd
       -0.079734325 -0.10016938 -0.16339482 -0.08533076
000250 a6 00 5e 3e 2d 20 c1 3e b9 cb 28 bc 41 a4 9a be
       0.21679935 0.3771986 -0.0103024775 -0.3020344
000260 9b 83 e8 3d 93 ca 78 3c e9 31 eb 3d 9e 8d bd 3d
       0.11353227 0.015185016 0.11484129 0.09255527
000270 03 60 54 be 81 21 8d 3e e5 3b cf be e1 21 7d bd
       -0.2073975 0.27564624 -0.40475383 -0.061799888
000280 0b a3 03 3e c7 e5 d7 3d 37 dc 43 3d ed b5 26 be
       0.12855165 0.105418734 0.047817435 -0.16280337
000290 1c 89 2f be 6c 64 6d bd 14 39 70 3d 92 5c 02 3f
       -0.17142147 -0.057957098 0.058648184 0.509225
0002a0 b3 66 ce bc 15 1a 10 3e 69 94 aa be 56 44 41 3d
       -0.025195455 0.1407245 -0.33316353 0.04718431
0002b0 65 88 d2 bd b7 8b e3 bd 0f f4 c7 bc 72 bc 0e 3d
       -0.102799214 -0.11110633 -0.024408368 0.034847684
0002c0 02 3c ab 3e 58 8b 82 bc df 9d 60 3d 86 40 68 be
       0.3344422 -0.015935585 0.054838058 -0.22680864
0002d0 98 0c 02 3e 21 3c de bd 74 d2 97 bd fc 41 37 bc
       0.12700117 -0.108513124 -0.074131876 -0.0111851655
0002e0 9d ba fc bc 25 58 c0 3d 8d 89 16 3d 34 23 93 3c
       -0.030850703 0.09391812 0.036752272 0.017961122
0002f0 e8 f4 78 bd 49 18 ff bc 4f 0a bf be 17 8b 8d be
       -0.060780436 -0.03113951 -0.37312552 -0.2764518
000300 ef 56 06 be bc 5c 30 3e b0 96 2e 3e ae 42 d1 3d
       -0.131191 0.17222875 0.1704967 0.10217796
000310 a4 93 5f 3d 0a 52 b6 3e 1c 2a 27 3e 19 4e 66 3d
       0.05458416 0.35609466 0.16324657 0.056226823
000320 c8 18 63 bd 8d 82 88 be 72 c3 9d 3d cd cb d6 bc
       -0.055443555 -0.26662102 0.07703294 -0.026220227
000330 04 b8 93 3d 91 25 99 bd 74 51 9e 3d 30 c0 87 3d
       0.072128326 -0.07477868 0.0773038 0.06628454
000340 be ae 9b 3e d4 25 df 3d 2a a5 c6 be a1 dd c6 bd
       0.30406755 0.10895887 -0.38797885 -0.09710241
000350 af 21 48 be fc d3 82 3e 62 ec 15 be d4 1d bf 3d
       -0.195441 0.25552356 -0.14640954 0.09331861
000360 0d a1 f8 bd aa c2 b3 3d 94 64 13 bc e4 af 41 3d
       -0.12140093 0.087773636 -0.008996148 0.047286883
000370 71 9f 79 be 3a b2 63 3e 22 2e 1a bd ec c5 92 bd
       -0.24377228 0.22235957 -0.037641652 -0.07166657
000380 8a ac 11 3e af ce fd bb 8c 10 03 3e 06 01 96 bd
       0.14225975 -0.007745586 0.12799281 -0.07324414
000390 a5 c2 b6 3e da 1e e9 bd 8c d2 77 be 97 45 84 3e
       0.35695377 -0.113828376 -0.24201411 0.25834343
0003a0 f0 b9 99 be 17 42 34 bc a5 2b 91 3e 9e 6f 59 3e
       -0.30024672 -0.011002085 0.2835361 0.21233985
0003b0 84 6d 2b bd 17 37 78 3e 81 94 ab 3d d8 15 cd 3d
       -0.04185249 0.24239765 0.08377934 0.10013932
0003c0 39 36 82 be ad 29 8a be 23 13 a2 be 62 31 04 bd
       -0.25431994 -0.2698492 -0.31655225 -0.032273658
0003d0 59 d2 23 3d 0e bf e4 3d f1 40 fa bc db c2 85 b9
       0.039995525 0.11169253 -0.030548545 -0.00025512915
0003e0 f1 6b 45 be 15 9b 40 3e fb 31 3a be 8a a3 0b 3e
       -0.19279458 0.18809159 -0.18183129 0.13636604
0003f0 fd ed f1 3c a7 06 cd 3d 41 b9 03 3b 14 1b fc 3c
       0.029532427 0.100110345 0.0020099434 0.03077463

dw.nw.0.bias f4 [64]
000000 30 9e 15 be 1b da 42 3e 60 13 99 3d e9 40 44 be
       -0.14611125 0.19028513 0.074743986 -0.19165386
000010 2a 6c 3c bd 6b 56 4a 3e 1b c5 0b bd 1e 04 1e 3e
       -0.04600159 0.19759528 -0.03412352 0.15431258
000020 ef 3b 4c bb 25 60 55 3e b5 da d5 bd 43 69 63 3d
       -0.0031163653 0.20837457 -0.10442106 0.055520307
000030 d5 12 b1 bd 60 9b 13 be ae dc 57 be 90 c9 a3 bd
       -0.0864617 -0.1441474 -0.21080276 -0.07997429
000040 a0 a2 10 3e 81 f6 3e be 6e 55 37 3e 24 e3 4f 3e
       0.14124537 -0.18648721 0.17903683 0.20301491
000050 1f e4 13 3d a3 34 41 be 53 53 22 be 72 da 4f 3e
       0.036106225 -0.18867736 -0.15852098 0.20298174
000060 3a 44 cd bd 2a ab ee bd 57 8c fc bd b2 d9 f7 bd
       -0.10022779 -0.11653741 -0.12331455 -0.12102069
000070 3a 2b b0 3c 39 ad d8 3d 04 34 be 3c 71 3e 2a 3e
       0.021504987 0.105799146 0.023218162 0.16625382
000080 65 1b fd bd 0a 6d 90 3d 3f 60 60 3d 06 e3 71 3e
       -0.12358741 0.070520476 0.054779287 0.23621759
000090 a7 a6 68 3e 69 68 7e bd 4d 7c 4a 3e 77 bd 38 be
       0.22719823 -0.062111292 0.1977398 -0.18041025
0000a0 fe 3d 3d bd bc c9 45 3e 0b 3d b0 bc ea 74 54 3e
       -0.0462017 0.19315237 -0.021513483 0.20747724
0000b0 9d 64 b0 3c de a2 18 be 84 31 8c bc 7a 95 11 be
       0.021532351 -0.14905879 -0.017113455 -0.14217177
0000c0 f3 02 60 be a9 de 63 3d 96 49 eb bc 76 cb 08 3e
       -0.21876125 0.055632267 -0.028721612 0.13358864
0000d0 90 a0 00 3d d4 35 5a 3e 94 92 fd 3d b4 ce e8 3c
       0.031403124 0.21309596 0.12381473 0.028418876
0000e0 15 f3 41 3e f6 88 c0 3d d7 2f 26 3e 62 8f 9a bb
       0.18940385 0.09401123 0.16229187 -0.0047167996
0000f0 83 21 1a 3e 45 2d 46 3d 3e 7e 68 be 1c d7 2d bc
       0.15051846 0.048383016 -0.22704408 -0.010610368

dw.nw.1.weight f4 [64]
000000 de 77 52 3f b7 e9 5a 3f be b1 3f 3f 35 f4 84 3f
       0.8221415 0.8551287 0.7488059 1.0387026
000010 8a b6 32 3f 44 44 93 3f 40 6f 89 3f 10 6b 50 3f
       0.6980978 1.1505208 1.0737076 0.81413364
000020 f6 36 76 3f 0f 06 9e 3f 37 3e 79 3f 82 f9 81 3f
       0.96177614 1.2345599 0.9736056 1.0154269
000030 16 8a 98 3f 1c c0 73 3f 68 cb 9e 3f 5d 52 8d 3f
       1.191714 0.9521501 1.2405825 1.104076
000040 5a ec 0f 3f ad 9b 28 3f 74 51 60 3f 23 d6 5f 3f
       0.5622002 0.6586254 0.8762429 0.8743612
000050 2e 6e 86 3f aa c2 6c 3f a8 47 80 3f 24 c8 8d 3f
       1.0502374 0.92484534 1.0021868 1.1076703
000060 df ec 4c 3f f6 ee 85 3f 6f 65 2c 3f 8a 82 8f 3f
       0.80048937 1.046355 0.67342275 1.1211712
000070 75 91 7d 3f b9 25 29 3f 55 8b a3 3f f0 01 4c 3f
       0.99050075 0.66073185 1.2776896 0.79690456
000080 d3 fc 87 3f 13 74 4f 3f 1a e6 8e 3f 40 29 55 3f
       1.0624031 0.8103649 1.1163971 0.8326607
000090 0a b7 61 3f 93 8d 87 3f fa 66 88 3f 4f b8 64 3f
       0.8816992 1.059008 1.0656426 0.8934373
0000a0 a1 90 70 3f 36 3a 99 3f d2 c0 84 3f 1b 99 53 3f
       0.93970686 1.197089 1.0371344 0.82655495
0000b0 97 2c 69 3f 76 7b 61 3f 2d c6 55 3f 42 16 42 3f
       0.91083664 0.8807901 0.8350552 0.7581521
0000c0 fb 92 7a 3f 82 cd 4f 3f 70 82 3b 3f 6f 53 8e 3f
       0.97880524 0.81172955 0.73245907 1.1119212
0000d0 8b 3d 40 3f 53 bd 7c 3f 5c 92 31 3f fd a1 8b 3f
       0.7509391 0.98726386 0.6936395 1.090881
0000e0 0c fa 6c 3f 99 df 5b 3f 70 be 51 3f df 74 96 3f
       0.9256904 0.8588806 0.8193121 1.1754416
0000f0 a1 b7 5b 3f 0e 23 8c 3f cd 4a 6c 3f 83 f2 58 3f
       0.8582707 1.0948198 0.92301637 0.84745044

dw.nw.1.bias f4 [64]
000000 cd 6e a0 be d7 7f 43 3e f6 1e 33 3e 5b 38 44 be
       -0.31334534 0.19091736 0.1749228 -0.19162123
000010 5c 3f 97 3d 51 95 d8 3a bd 9e 5d bd 44 59 22 3d
       0.07385132 0.0016523992 -0.054106463 0.03963591
000020 3a c5 6d 3f 6c c6 7a bd bf 95 8d 3d 97 5b 70 bd
       0.9287907 -0.061224386 0.069133274 -0.058681097
000030 e2 82 63 3e 94 9f 72 3e b0 59 7f 3e 8b ac 84 3d
       0.22217897 0.23693687 0.24936557 0.064782225
000040 3a ba 7f 3e 2b 61 39 3f 02 b2 13 bc ff 53 e6 3f
       0.24973384 0.7241389 -0.009014608 1.7994384
000050 41 73 29 3e 45 ce 18 3e a5 5b bb ba 56 2c 61 bc
       0.16547872 0.14922436 -0.001429428 -0.013743481
000060 f8 3f ff 3e 7b 8b 4d bd 8a c0 d6 3d f9 a7 0e bf
       0.49853492 -0.050181847 0.10485943 -0.55725056
000070 07 59 12 3e 35 a2 1e bc 36 71 ba 3e 08 09 14 3f
       0.14291774 -0.009682228 0.36414498 0.5782628
000080 0e a0 1b bd 77 ec 01 bf 73 90 de 3c 31 c5 e7 3e
       -0.037994437 -0.5075144 0.027168488 0.45267633
000090 ac d4 44 40 1b 53 2b bd 86 cc b5 bd 7a e2 17 be
       3.0754805 -0.041827302 -0.088769004 -0.14832488
0000a0 aa 2f d7 bc 3d f4 a1 be 8c 2e c3 3c a2 8d 87 3e
       -0.026267845 -0.31631652 0.023825906 0.26475245
0000b0 f4 57 b5 3f 2e 9f 0e 3e fa d8 ee 3e 4a d4 3a be
       1.4167466 0.1392791 0.46649915 -0.18245044
0000c0 e9 01 7c 3e 98 45 81 bd 86 6f 19 be e2 f1 2d 3e
       0.24610104 -0.06312102 -0.14983949 0.16986802
0000d0 04 54 52 be 87 c0 27 bd 32 fe ce bc 86 e4 33 bf
       -0.20539862 -0.040955093 -0.025267694 -0.70270574
0000e0 00 55 04 bd ee 67 a4 3f d6 fe 8d be b9 e7 50 bd
       -0.032307625 1.2844217 -0.27733487 -0.051002238
0000f0 97 9a dd 3e 3e 77 fe bd 43 94 96 3f 6b c7 c3 bd
       0.43282005 -0.124250874 1.1763996 -0.0955952

dw.nw.1.running_mean f4 [64]
000000 7f 85 7a be 35 a9 48 3e 7e 5e 41 3d 48 e2 42 be
       -0.24464987 0.19595797 0.047209255 -0.19031632
000010 ad ed 0e bd e0 10 47 3e 82 0e 0d bd 26 29 0d 3e
       -0.034894634 0.19440031 -0.034437664 0.13785228
000020 86 eb a1 3a 8e 88 54 3e 2f 33 ce bd e3 da 65 3d
       0.0012353517 0.20755216 -0.10068356 0.05611695
000030 ee 7e b0 bd 70 1e 0f be 7c 80 59 be 08 1b 9f bd
       -0.0861796 -0.13976455 -0.21240419 -0.07768828
000040 d3 c5 be 3d fa 79 3d be 42 09 35 3e db 1a 55 3e
       0.09315076 -0.18503562 0.17679313 0.20811026
000050 9b f8 10 3d 22 5e 3d be 4c 17 2c be 5e 37 4f 3e
       0.03539334 -0.1849294 -0.16805762 0.20235965
000060 2c dc c0 bd 6c 2d ef bd c6 ba df bd d8 79 f9 bd
       -0.094169945 -0.116785854 -0.10924296 -0.12181443
000070 c2 00 29 3d 51 68 3d 3e d1 3f 17 3d 33 38 27 3e
       0.04126049 0.18496825 0.036926094 0.16330032
000080 41 a4 fb bd 16 d6 6f bd ff 83 3f 3d f6 d5 75 3e
       -0.12287188 -0.058553778 0.04675674 0.24007401
000090 95 45 64 3e e9 1a 7f bd 8f 32 4c 3e fe 45 1e be
       0.22292168 -0.062281523 0.19941162 -0.15456387
0000a0 27 1c 71 bd 47 e7 3a 3e 49 c0 ac bc ea 8a 51 3e
       -0.05886474 0.18252288 -0.021087782 0.20463148
0000b0 96 f6 c8 3c fd a8 23 be 53 8c 9b bc 2d 43 8f bd
       0.024531644 -0.15982433 -0.01898781 -0.06995235
0000c0 83 68 5b be f3 26 f8 3c 63 80 63 bd e1 15 08 3e
       -0.21426587 0.03029201 -0.05554236 0.13289596
0000d0 ca fe a2 3c 4d 3c 50 3e 50 07 1a 3e e6 93 99 3d
       0.019896884 0.20335503 0.15041852 0.074989125
0000e0 81 2f 40 3e 7a b7 c4 3d 63 b2 cf 3d bf 21 85 bb
       0.18768121 0.09605308 0.101414464 -0.0040628607
0000f0 9e 1f 14 3e 3b 20 48 3d 3f 7b 6a be 0f 48 bd bd
       0.14465186 0.048858862 -0.22898577 -0.0924226

dw.nw.1.running_var f4 [64]
000000 e1 47 cf 3c 1d b0 01 3b 9c b0 db 3b 5b 42 d2 3a
       0.02530283 0.001978881 0.006704403 0.0016041504
000010 c1 4d d3 3a 69 4a d4 3a cf 2f 78 3a 5b 4a 09 3b
       0.0016121195 0.0016196492 0.0009467573 0.002094886
000020 8f 2f 20 3a 88 fe fe 39 e8 bb 0f 3b d3 8a 2d 3a
       0.00061106024 0.00048636296 0.002193207 0.00066201127
000030 46 26 ae 3a c4 95 bf 3a 30 b4 34 3b f5 16 eb 3a
       0.0013286553 0.0014616777 0.002757322 0.0017935919
000040 9b 74 62 3c c3 d7 34 3a 75 b3 22 3a b1 c3 55 3a
       0.013821746 0.0006898606 0.0006206551 0.00081544655
000050 4c fd 34 3b 4e e7 26 3b 34 3f d9 3a f0 c9 27 3a
       0.0027616797 0.0025467458 0.0016574622 0.00064006355
000060 28 25 8e 3a 1f 77 fc 39 c0 af ea 3c b9 c4 09 3a
       0.0010844814 0.00048153938 0.028648257 0.0005255449
000070 41 50 48 3b 56 56 0d 3d 63 bd a0 3a d2 b2 b9 3a
       0.0030565413 0.034506164 0.0012263473 0.0014167672
000080 a0 89 18 3a 88 24 29 3d 68 21 ac 3a eb c2 84 39
       0.00058188476 0.041294605 0.0013132514 0.00025322227
000090 5a cb c9 39 4a cd 3a 3a 0c e1 a2 3a 01 ff 87 3b
       0.00038489216 0.00071259274 0.0012426688 0.004150272
0000a0 05 9e d6 3a 6c 02 49 3a 6b 29 bd 3a 4d 76 a3 3a
       0.0016373998 0.00076679024 0.0014431899 0.001247117
0000b0 df 8f cc 39 fd 10 00 3b d4 0c 19 3a 82 af 78 3c
       0.00039017104 0.0019541376 0.00058383984 0.015178563
0000c0 a9 bb b3 3a 22 b3 60 3b 62 90 88 3b 2b 87 1f 3b
       0.0013712543 0.003428646 0.0041676024 0.002434204
0000d0 a9 dc c3 3a e6 d3 47 3b 0a a0 6a 3c 9c bb d1 3b
       0.0014943081 0.0030491292 0.014320383 0.0064005386
0000e0 a5 c6 8d 3a e9 a5 08 3a 97 1d 2d 3c 85 1e 88 39
       0.0010816647 0.0005212711 0.010566137 0.0002596268
0000f0 f3 5d 13 3b 30 d6 f0 39 b6 ca 18 3a ab be 93 3c
       0.0022486418 0.0004593595 0.0005828546 0.018035254

dw.nw.3.weight f4 [64, 64, 3, 3]
000000 1f 34 cb bc b4 99 03 bd a4 f7 c3 bd aa 51 8a 3c
       -0.024805127 -0.032129005 -0.09568718 0.016884644
000010 e7 12 0b 3d cc 03 7e bd 73 39 01 bd 13 be 54 bb
       0.033953574 -0.06201534 -0.03154893 -0.0032461926
000020 24 8f 80 3d df 43 d8 3c 16 bb 81 bd 41 04 23 be
       0.06277302 0.026399551 -0.06334512 -0.15919591
000030 96 fe 2a be 21 e1 9d bd 37 4b b1 3c 89 87 0b 3d
       -0.1669868 -0.077089556 0.02164231 0.034064803
000040 8c 3c e6 3d 53 8e f5 3c c6 64 c2 3c d2 eb 1c bd
       0.11242017 0.029975092 0.023729693 -0.038310833
000050 75 e9 2c ba 16 33 bd bc 09 31 16 be ce 87 d5 bd
       -0.0006596067 -0.023095649 -0.14667143 -0.10426293
000060 7f f1 1c ba 5a 68 60 3c c4 9c c6 bd 18 6c b6 bd
       -0.00059869135 0.013696754 -0.096978694 -0.08907336
000070 00 42 2e bd 8d 6c 25 be fe 4f bb bd 51 c9 25 be
       -0.04254341 -0.1615469 -0.09146117 -0.16190077
000080 18 91 8a be 0a 56 df be 35 f2 8d be e1 32 c0 be
       -0.27063823 -0.4362033 -0.27723852 -0.37538818
000090 d3 e0 68 3d 21 20 84 bd 74 ff 2a 3e e8 9b 0e 3d
       0.056855034 -0.064514406 0.1669901 0.034816653
0000a0 15 dd 57 bd fc 55 44 3d d6 68 2e bd 14 d7 2e 3d
       -0.052701075 0.047933564 -0.042580448 0.042685583
0000b0 96 f8 cb 3d a4 ab 86 3c 06 d6 bd be dc 3a a2 be
       0.099595234 0.016439267 -0.3707735 -0.3168553
0000c0 9a 00 34 be 89 8a 2c be dd 1c 0c bd fa 65 5b be
       -0.17578354 -0.16849722 -0.034207214 -0.2142562
0000d0 bb fc 95 bd 92 70 04 be 8b 51 2e be 15 43 c6 bd
       -0.07323595 -0.12933567 -0.17023294 -0.09680764
0000e0 93 dc 8d be dc 5b b6 bd db 88 92 be 6f b2 0b bf
       -0.27707347 -0.089042395 -0.28620037 -0.54569143
0000f0 f0 b9 78 be 59 e2 1d be eb e1 ad be 5c 16 a2 3d
       -0.2428968 -0.15418376 -0.33961424 0.07914421
000100 9b 7d cd 3d dc e0 6b 3b 55 66 61 3c e6 b2 34 be
       0.10033723 0.003599218 0.013757308 -0.1764637
000110 de 7c 31 bd e3 5b 8b 3d 4f eb 68 bc ae 3a 04 3e
       -0.043331973 0.068046354 -0.014216258 0.1291301
000120 c0 82 69 bb f9 49 07 be fa c7 89 bd 47 9a 96 be
       -0.0035630912 -0.13211812 -0.067275956 -0.2941458
000130 bc f6 33 bd 3e 08 06 bc 25 79 09 bd 4e 9c 25 3e
       -0.043936476 -0.008180676 -0.033562798 0.16172907
000140 52 72 97 3d 99 67 6f 3d 44 11 ff 3d 75 dd 2b 3e
       0.07394852 0.058448408 0.12454465 0.16783698
000150 ce cb 42 3e 26 1c ad bc 99 8c 20 3e 99 e2 c0 3d
       0.19023058 -0.021131586 0.15678634 0.0941822
000160 86 39 cc 3d 0f 4c d7 3d 5d b1 96 bc 36 41 aa 3d
       0.09971909 0.10512554 -0.01839512 0.08313219
000170 8a ef cc 3c a4 d7 41 bd 47 01 2b bc 29 69 b6 bc
       0.025016565 -0.04732479 -0.010437316 -0.022266941
000180 8a cf 51 3d d2 5f 7a 3c 80 dc 90 3d b5 c0 74 3d
       0.051223315 0.015281634 0.07073307 0.059754092
000190 90 58 fd bd 6f 75 40 bd 1f 25 5c bd 89 69 0c bd
       -0.123704076 -0.046986993 -0.05374634 -0.034280334
0001a0 11 57 2f bd ee 55 5b bc 77 a6 c7 bd b4 61 5b 3d
       -0.042807642 -0.013387186 -0.097485475 0.053559974
0001b0 6b 20 ac be 98 4b 13 3d 35 ad ae bc 3d e6 89 bd
       -0.33618483 0.035960764 -0.021322826 -0.067333676
0001c0 b8 58 6a 3d b1 c5 08 be c0 f4 ae 3d 76 b0 a1 3d
       0.057213515 -0.13356663 0.08542776 0.078949854
0001d0 18 97 fa 3d fb 51 db 3c 77 4a a6 bc 89 ed 90 3d
       0.1223585 0.02677249 -0.02029918 0.07076556
0001e0 61 0f 08 3e 12 b8 4d 3b a0 fc 15 bd 43 cf f2 3d
       0.13287117 0.0031390232 -0.036617875 0.11855938
0001f0 06 be 29 bc 11 cc 3d 3c 4c 5c a7 bb 4e 0b ee bd
       -0.0103602465 0.011584298 -0.005107438 -0.1162325
000200 6b c7 a6 3d 72 ab 75 bd 58 1a 29 3d e4 60 fe 3d
       0.08143505 -0.059977956 0.04128489 0.12420824
000210 74 35 c5 bd b8 08 f5 bc 72 82 1b bb c8 ed 54 3d
       -0.09629336 -0.029911384 -0.0023728875 0.05198458
000220 56 3f 04 3d 5d 4f bc 3d bb a6 8e 3d 12 16 14 3d
       0.032286964 0.09194825 0.06965395 0.03615386
000230 c8 57 f3 bc 8a ac 13 3d f4 dd 36 3d 59 60 e6 3d
       -0.029704943 0.036053218 0.044645265 0.112488456
000240 a0 42 9d 3d bf 4d 96 3d de 0c 30 3d 09 45 14 3d
       0.07678723 0.07339048 0.04298102 0.03619865
000250 19 35 f5 3c 64 2c 25 3d 92 e7 2a bb 31 44 f4 3c
       0.029932545 0.040325537 -0.0026077968 0.029817672
000260 4f 16 b5 3c 85 b2 fa 3b e8 a6 d9 be 12 37 cb bd
       0.022105364 0.0076506757 -0.42510152 -0.09922613
000270 09 5b 87 3d eb a3 df bc b4 63 b8 3d 15 db 7b 3e
       0.066091605 -0.027299842 0.09003392 0.24595292
000280 4c ca a6 bb c7 e8 d2 3b 15 86 e9 3d 8a 08 76 3d
       -0.0050900336 0.0064364406 0.11402527 0.060066737
000290 00 cb 18 bd ba 1c 80 bd 77 ad ce bd bd 43 31 be
       -0.03730297 -0.06255479 -0.100916795 -0.17310996
0002a0 2f 43 c6 3d e6 1b c7 3b 06 8a ed 3d fa c5 57 bd
       0.09680783 0.006076324 0.115985915 -0.05267904
0002b0 19 ad 55 be 97 02 9e 38 1d 01 13 3d 20 5e 16 bc
       -0.20866813 7.5345095e-05 0.035889734 -0.009177715
0002c0 69 7e 65 bd fc 9c 8c 3c 46 59 46 be dc 6a 03 be
       -0.056028757 0.0171647 -0.19369993 -0.12833732
0002d0 9c d0 f0 bb e7 53 e5 3c 47 99 5d 37 75 1a 90 bc
       -0.007349087 0.02799411 1.3208314e-05 -0.01759074
0002e0 1a 80 b2 bd ea 7d b2 bd 9e 28 56 3e 29 fe 1f 3e
       -0.0871584 -0.087154225 0.20913932 0.15624298
0002f0 d8 37 a1 bb 3b 36 b2 3c 8e a1 fc bd cb d6 97 be
       -0.004919987 0.021754375 -0.123355016 -0.29656062
000300 ef c0 25 bc f0 b4 34 be a0 d6 11 be 91 7e 9f 3d
       -0.0101168 -0.17647147 -0.14242029 0.077878125
000310 3d a5 bc bd 63 29 d3 bc 41 c2 45 bd db bd a6 3d
       -0.09211204 -0.02577657 -0.048280958 0.08141681
000320 5f 84 55 bd 0d d3 8f be df 68 4c 3d 23 0f 89 be
       -0.052128192 -0.28090706 0.0499047 -0.2676936
000330 29 8c 1c be f3 83 1e 3c 80 ff 84 be 0d c6 14 3e
       -0.15287842 0.009675014 -0.2597618 0.14528675
000340 6d 21 aa 3d f5 07 ac bc 4c bf 98 bd 77 41 00 be
       0.08307157 -0.020999888 -0.07458362 -0.12524973
000350 af 16 cf bd f0 a1 8f bd 26 58 cf bd 8a f0 bd bd
       -0.101117484 -0.07013309 -0.10124235 -0.09274395
000360 cd d6 5b 3e 45 2a 53 3e de 78 80 3e aa 55 e1 3d
       0.21468659 0.20621593 0.25092214 0.11002667
000370 16 a4 47 3c 01 0f 4c bd 33 4b 78 be 14 1b 92 be
       0.012185117 -0.049818996 -0.24247436 -0.28536284
000380 cf 7c 8d 3d 23 e2 2a 3e 32 23 88 bd 89 3f 0d 3d
       0.06908571 0.16687827 -0.06647338 0.03448442
000390 af 8a 70 3d 1b f0 fa bc 76 02 9f 3d 6c 6a 7b bd
       0.05872601 -0.03063207 0.07764141 -0.06138079
0003a0 81 5a 7e 3d 4d 37 29 bc 87 a9 b3 3d c2 73 21 3d
       0.06209803 -0.010328126 0.08772569 0.039417036
0003b0 af df 72 3d 8f 7f 1d bc 2a dc 98 bd 6b d7 4d bd
       0.059295353 -0.009612932 -0.07463868 -0.050254267
0003c0 12 18 df bc ab af 97 bc 44 64 bb bc 1d 5d a2 bc
       -0.027233157 -0.018516382 -0.022874959 -0.01981979
0003d0 50 c1 68 be 0a 5e 77 be 22 f6 11 be 0c 02 cd be
       -0.22729993 -0.24156967 -0.14254048 -0.40040624
0003e0 de cc a6 be 6a ea 4a be ad ab 68 be 30 c7 20 be
       -0.32578176 -0.19815984 -0.22721739 -0.15700984
0003f0 b8 12 bf 3d d8 4c 48 3d 0b 3b 04 bc 0b ac 30 3d
       0.09329742 0.04890141 -0.008070718 0.043132823

dw.nw.3.bias f4 [64]
000000 8c 34 bc bb 8f e7 a8 bc d0 62 25 3d 24 d1 84 3c
       -0.0057435688 -0.020618228 0.040377438 0.016213007
000010 58 e0 ef bc 30 1f 8f bc 52 da 18 3d 04 e3 15 bd
       -0.02928178 -0.017470926 0.03731758 -0.036593452
000020 62 b8 08 bc 98 02 b9 bc 79 7c 2d 3c 80 4e 8f bc
       -0.008344742 -0.022584245 0.010588759 -0.017493486
000030 8e fd 92 3c 49 9f cd 3c de 04 27 bd 36 2b 41 3c
       0.01794317 0.025100367 -0.040776126 0.011790087
000040 7d 3c cc bc 47 07 96 bc 48 11 0d 3d 62 cf 31 bc
       -0.024931187 -0.018314017 0.03444031 -0.010852667
000050 4c 5c 20 bd 03 60 b9 bc 13 4d 97 3c d5 6d 42 bc
       -0.03915052 -0.02262879 0.018469369 -0.011867006
000060 e4 9a 15 3d 3b 02 83 3c f0 d7 1f bc 41 de 21 bb
       0.03652467 0.015992275 -0.009756073 -0.0024699124
000070 69 fd f1 3c 9f 75 d5 bc da bc 8a bb 60 b8 fe 3c
       0.02953978 -0.026057063 -0.0042339386 0.031093776
000080 10 bd ec 3c 1b 78 06 3c 59 f7 08 3b 4b 1b 2c 3c
       0.028898746 0.008207346 0.0020899384 0.010504554
000090 33 05 3c 3c 08 e5 f6 3c 9c 67 04 3c 50 56 0e 3c
       0.011475849 0.030138507 0.008081343 0.008687571
0000a0 28 8f a6 bb 65 b8 12 3d a3 01 03 bd 84 04 31 bc
       -0.0050829835 0.035820384 -0.031983983 -0.010804299
0000b0 97 1c 87 bc c1 b2 26 3d 77 c3 ee bc b7 33 1b 3d
       -0.016493125 0.040697817 -0.02914594 0.037891116
0000c0 10 a3 2f 3c f4 9a 82 3c 7d 7d 00 3c 2e da 27 bc
       0.0107200295 0.015943028 0.007842419 -0.010244889
0000d0 c4 a7 3e bc 69 fe 08 3d 8d 78 1c bd 06 a8 0f bc
       -0.011636678 0.03344575 -0.038200904 -0.008768087
0000e0 75 3f 7b 3c 3e 75 ba 3c 20 6f e8 3c 93 bd ee 3b
       0.015334954 0.022760984 0.028373301 0.0072857826
0000f0 a3 3c 16 bd 67 24 78 bc 19 d2 d4 bc ee a0 33 bc
       -0.03667892 -0.015145398 -0.025979089 -0.010963662

dw.nw.4.weight f4 [64]
000000 83 f6 76 3f f3 17 86 3f e0 58 25 3f ca 34 a0 3f
       0.964699 1.0476059 0.6458874 1.251611
000010 14 29 82 3f db 27 69 3f 81 8e 7b 3f ab 3b 49 3f
       1.0168786 0.9107644 0.9826432 0.7860667
000020 a5 7e 87 3f fc 06 5c 3f f4 50 5a 3f a0 22 77 3f
       1.0585524 0.8594816 0.85279775 0.9653721
000030 1d b0 fe 3e a9 c1 47 3f 0f e5 1f 3f fe b7 5a 3f
       0.4974374 0.78029877 0.6245889 0.85437
000040 07 37 79 3f 3b f2 70 3f 41 57 7c 3f e3 5d 40 3f
       0.9734959 0.94119614 0.9857064 0.7514326
000050 ab 40 6a 3f 2d 68 17 3f fa 3e 2c 3f a3 27 41 3f
       0.91504925 0.59143335 0.67283595 0.75451106
000060 53 81 82 3f fa 98 3a 3f cf ae 62 3f f2 66 59 3f
       1.0195717 0.72889674 0.88547987 0.8492271
000070 d5 4c 78 3f f4 c8 49 3f ce b3 9e 3f ff 44 a4 3f
       0.96992236 0.78822255 1.2398622 1.2833556
000080 c8 3d 32 3f 2a c3 16 3f 86 66 64 3f da bb 56 3f
       0.6962552 0.58891547 0.8921894 0.8388039
000090 11 21 5f 3f 77 48 6d 3f ff c2 a9 3f 5f e9 99 3f
       0.8715983 0.926887 1.3262633 1.2024344
0000a0 9c 38 14 3f d1 67 f8 3f 66 7b 42 3f 49 2d 23 3f
       0.5789888 1.9406682 0.7596954 0.63740975
0000b0 04 54 74 3f 4a 28 7e 3f 12 89 78 3f 51 5f 33 3f
       0.954407 0.99280226 0.9708415 0.70067316
0000c0 fe 9a 9d 3f 08 8d 6e 3f f0 85 6b 3f 97 0a 4a 3f
       1.2312925 0.93183947 0.9200125 0.7892241
0000d0 16 6a a3 3f 58 87 22 3f 21 da 25 3f fc ea 35 3f
       1.276675 0.6348777 0.64785963 0.7106168
0000e0 2d c8 a3 3f bd 00 0a 3f 2e 97 a1 3f 78 a7 34 3f
       1.2795464 0.53907377 1.2624261 0.7056804
0000f0 0e 5c 14 3f 8f ff a1 3f 88 30 30 3f dd 3d 48 3f
       0.57952964 1.2656115 0.6882405 0.78219396

dw.nw.4.bias f4 [64]
000000 23 3a b5 bd f2 20 e0 be c4 e4 5f bd a6 49 a8 bd
       -0.08848979 -0.43775135 -0.054661527 -0.08217172
000010 e9 82 11 be 15 f5 13 be 2d aa 4a be 42 c7 7a bd
       -0.14210095 -0.1444896 -0.1979148 -0.061225183
000020 fa 7e 48 be 34 f7 24 3e c5 bb 98 be 4a b7 2f be
       -0.19579688 0.16109926 -0.29830757 -0.17159763
000030 1c cc d7 3d df 0b 82 3e 91 0d f1 bc a8 a4 92 bd
       0.10536978 0.25399682 -0.029425414 -0.07160312
000040 97 0f 72 be 37 84 1c bc c0 84 bc be 25 37 53 3d
       -0.2363876 -0.009553007 -0.3682003 0.05156626
000050 59 4c 5b be d1 a0 03 bd d1 68 d2 bd 78 21 45 3e
       -0.21415843 -0.03213579 -0.102738984 0.19251049
000060 4e 94 a7 be fc 52 62 3e 54 21 ad 3e aa 7e 2d 3d
       -0.32730335 0.22101969 0.3381449 0.042357124
000070 51 fd 41 3d 8e 8f a5 3c 88 8b 04 be 20 b3 6a bc
       0.047360722 0.020210054 -0.12943852 -0.014324933
000080 0b 7b ba 3e 65 ba 03 3e a6 5b 8a be bd 0a 3b 3e
       0.36422 0.12864073 -0.27023047 0.18265815
000090 06 bd 05 be 16 e8 20 3d 6d 25 9a be a4 f5 d9 bd
       -0.13060388 0.039283834 -0.3010668 -0.10642555
0000a0 46 4a 2f 3e a2 c3 75 bf 93 66 59 3e 52 7c 0d 3e
       0.17118177 -0.96001637 0.21230535 0.13816956
0000b0 e5 fb 43 bc d7 f5 57 3e 6d bb a0 be 8a 0b 9a be
       -0.011961912 0.21089874 -0.31392995 -0.3008693
0000c0 71 4a 49 bd c5 f3 8b 3e c3 c8 64 bd cb a4 f9 3e
       -0.04914326 0.2733442 -0.055855524 0.4875854
0000d0 65 bc 26 be d0 f2 d7 3b 63 34 ab bd ca 89 19 3e
       -0.16282804 0.006590225 -0.08359601 0.14993969
0000e0 52 09 f0 be f0 53 94 bd 9f 2d 9d be d1 86 0b be
       -0.4688211 -0.07242572 -0.3069887 -0.13625647
0000f0 0c 0c 9c be 9b 0c 61 bd 9d 77 74 be 06 86 6a 3e
       -0.3047794 -0.054943662 -0.23873754 0.22902688

dw.nw.4.running_mean f4 [64]
000000 da 3f 22 c0 3a 27 2b c0 db e4 d5 bf b6 e3 5d c0
       -2.5351472 -2.6742692 -1.6710466 -3.4670234
000010 91 3e 6d c0 17 d3 82 c0 92 80 b3 c0 b4 8e 03 c0
       -3.7069438 -4.088268 -5.6094446 -2.055585
000020 9f 4b 22 c0 51 7f 8a c0 43 42 93 3f 63 0a 39 c0
       -2.5358655 -4.3280416 1.1504596 -2.891259
000030 1e ec ed bf 3f 01 0e bf ff b4 d9 be 98 59 7b bf
       -1.8587682 -0.5547065 -0.42520902 -0.98183584
000040 d7 ac ed bf 42 cc 74 c0 f2 b0 d2 c0 db b0 85 c0
       -1.8568372 -3.824967 -6.5841 -4.177839
000050 7f 5e 7d 3f 37 bc 51 bf 17 1f 48 bf 94 61 36 c0
       0.98972315 -0.8192782 -0.7817244 -2.8497057
000060 bb c6 86 c0 87 04 fe 38 6d fb f5 bf 39 ce ed bf
       -4.211759 0.00012112507 -1.9217354 -1.8578559
000070 40 61 1d c0 28 be 0e c0 2f dc 31 c0 72 89 ae c0
       -2.4590607 -2.2303562 -2.779064 -5.454278
000080 6d e2 b3 c0 76 e6 24 bf 7e c8 53 c0 8b 89 a5 be
       -5.62139 -0.64414155 -3.309112 -0.323315
000090 fe b1 6f c0 62 ac 22 c0 37 ed 0e c0 d6 c9 86 bf
       -3.7452388 -2.5417714 -2.2332284 -1.0530345
0000a0 ce 5d b6 3f cc 7d 4d c0 51 6a 7b bf 1b ad 20 c0
       1.4247377 -3.210803 -0.982091 -2.5105655
0000b0 f1 fa 3c c0 67 81 ad c0 ef f7 26 c0 ca 19 59 40
       -2.9528162 -5.422046 -2.6088827 3.392199
0000c0 ec be 8d c0 df 3b 9c c0 9e bd 2e c0 90 22 e2 bf
       -4.429556 -4.8823085 -2.7303233 -1.7666798
0000d0 90 51 81 c0 f5 d4 9a bd 3a 9f 96 bf 07 47 91 bf
       -4.0412064 -0.075601496 -1.1767342 -1.1349801
0000e0 14 bf 5f c0 5e d8 05 c0 cc de 64 c0 ee 8b 8b 3e
       -3.4960375 -2.091331 -3.5760984 0.27255195
0000f0 10 0e ed be be 4c 12 c0 c8 47 79 3f 7a 21 a1 bf
       -0.4629979 -2.285934 0.97375154 -1.2588341

dw.nw.4.running_var f4 [64]
000000 e8 c9 53 41 2b aa 85 40 b6 c1 09 41 48 e3 8e 41
       13.2367935 4.1770225 8.609793 17.860977
000010 0f dd df 40 16 64 91 41 f9 58 18 41 a9 80 89 41
       6.9957347 18.17387 9.521722 17.187822
000020 4c 49 38 41 54 3b 2b 41 64 fd 1c 41 51 b8 02 42
       11.517895 10.701984 9.811863 32.679996
000030 05 1f 86 40 62 da 1e 41 29 ff f1 40 fe 86 69 41
       4.1912866 9.928316 7.5623975 14.595457
000040 66 74 a4 40 2e 0b fb 40 13 00 00 41 3a 14 00 41
       5.139209 7.8451147 8.000018 8.004938
000050 4e 9d fe 40 ae 77 f3 40 96 b9 db 40 6a 57 3a 41
       7.956702 7.6083593 6.8664045 11.646341
000060 11 a1 f1 40 a5 dc c4 40 9f af 48 41 9d f2 f3 40
       7.5509114 6.151934 12.542876 7.623366
000070 e9 13 48 41 b7 d0 61 41 04 32 7a 41 56 14 95 41
       12.504861 14.113456 15.637211 18.63493
000080 49 ab 02 41 1f 49 e6 40 45 e2 a7 41 11 f0 a3 41
       8.166818 7.196426 20.985483 20.49222
000090 ad 33 31 41 b5 0b 03 41 93 dc d5 41 42 6f b5 41
       11.075116 8.190358 26.732702 22.679325
0000a0 3d f6 18 41 a2 5b f3 41 11 d9 bd 41 ab 6c e9 40
       9.560117 30.419743 23.73099 7.294515
0000b0 75 55 0e 41 04 dd 71 41 5f 6a 44 41 d3 72 7d 41
       8.895864 15.116459 12.2759695 15.840533
0000c0 a9 fb 88 41 ca 4e 96 41 0f 44 28 41 cc a6 65 41
       17.12288 18.788471 10.516616 14.353222
0000d0 0a 17 8c 41 1e 50 b1 40 a9 1c 9d 40 3f c1 50 41
       17.51125 5.54103 4.9097486 13.047179
0000e0 07 b4 03 41 6a 8d 9e 40 21 68 af 41 d4 c4 e2 40
       8.231452 4.9547625 21.925844 7.086527
0000f0 68 c1 68 40 95 0b 82 41 f2 7f aa 40 2a f3 41 41
       3.6368046 16.255655 5.3281183 12.121866

dw.nw.6.weight f4 [64, 64, 3, 3]
000000 df 1a a2 3d cc 7f 39 3e 10 90 12 3e 9c 2e 2b 3d
       0.079152815 0.18115157 0.14312768 0.041792497
000010 55 15 6a 3c fa 2d e6 bb 61 e3 05 3e 91 a3 a1 3d
       0.0142873125 -0.007024524 0.1307502 0.07892526
000020 e1 26 99 3d 9a 6a 0a 3e e1 e4 83 bc 72 fa c5 bb
       0.07478119 0.13517228 -0.016100349 -0.0060418183
000030 3b d4 31 be 04 55 3f be 90 fe f0 3d ac df d5 be
       -0.17366116 -0.18684775 0.11767304 -0.4177221
000040 e5 c2 34 be 0a b0 9a 3b 1f 53 30 3e ef 88 a0 bc
       -0.17652471 0.0047206925 0.17219208 -0.019596545
000050 a9 b0 01 bd 72 41 b4 bd d2 3c d6 bc 4b 6c 1d be
       -0.031662617 -0.08801545 -0.026152048 -0.15373342
000060 34 fd 81 3d 07 bc 23 be 65 78 79 bc 4d 81 a1 3d
       0.06347123 -0.15989695 -0.015226458 0.0788599
000070 b8 b2 83 3d 83 cf 3c bb 71 e6 90 3d 5d e5 23 3e
       0.06430572 -0.002881021 0.07075203 0.16005464
000080 51 c1 aa 3d 7c 0e 46 3e 02 8b 36 3d 09 9d 86 be
       0.083376534 0.19341463 0.044566162 -0.26291683
000090 fd 8f 66 3d 49 ef eb bc b9 0a e6 3c fa b0 53 3d
       0.05628966 -0.028800623 0.028081285 0.05168245
0000a0 c2 ba db bd ca ba a2 bd 9a 55 aa bd 5e 9b 41 be
       -0.107289806 -0.079457834 -0.083171085 -0.18906924
0000b0 f8 81 22 be c4 81 75 bd 13 44 9e bd 12 a5 1a bd
       -0.15869892 -0.059938207 -0.07727828 -0.03775508
0000c0 ea 30 a5 bd b6 fc 00 3e 2b 6e 8a bd a4 7a 2a bd
       -0.0806597 0.12596402 -0.06759294 -0.041620865
0000d0 a6 42 28 3e 4f c9 70 3d 9f 82 91 bc 70 6e aa bc
       0.16431674 0.058785733 -0.01776248 -0.020804614
0000e0 9f 67 9b bc 38 f3 67 3b 21 37 e9 3d 22 d6 5e bc
       -0.018970309 0.0035392772 0.11387468 -0.013600858
0000f0 78 c4 dd 3b f6 35 27 3e f4 19 de 3d 07 d0 54 bd
       0.0067678057 0.16329178 0.10844794 -0.051956203
000100 c0 6f de bd 78 c8 fc bd 14 92 bd 3c c6 e0 78 bc
       -0.10861158 -0.12342924 0.023140945 -0.015190309
000110 a5 69 16 be b7 ec 9f bd 94 ab 03 be f6 56 b8 3c
       -0.14688738 -0.07808822 -0.1285842 0.022502404
000120 44 03 8d 3c 16 d1 1c be 2f 74 1b bd 05 d1 a2 3d
       0.017213471 -0.15314135 -0.0379526 0.079500236
000130 79 6e 19 3c 8f d1 fd bc 78 4b ab 3e c7 60 87 bd
       0.009364718 -0.030983714 0.33456016 -0.06610256
000140 38 45 d7 bd f4 dc 04 be a6 a6 8c 3b 02 28 29 3e
       -0.10511249 -0.12974912 0.004292327 0.16519168
000150 e5 7e 8a 3d 1b 26 8d 3d 00 8e 34 3e 07 e6 4e 3d
       0.067624845 0.06892034 0.17632294 0.05051234
000160 32 8f 36 3d 71 4c 90 3e 65 67 5f 3e ba 65 7d 3d
       0.044570155 0.2818332 0.21816786 0.061864592
000170 78 24 49 3c b0 7a 2b 3e 5b 83 d8 bc 28 e2 ae 3c
       0.012276761 0.1674602 -0.026429823 0.021348074
000180 54 0c bb 3d 50 21 bb 3c de 3d 13 3e 49 16 c1 bd
       0.09133211 0.022843033 0.14379069 -0.09428079
000190 74 14 4a bd 7a b4 cc bc 43 76 77 3b 55 63 63 bc
       -0.049335912 -0.024988402 0.0037759698 -0.013878663
0001a0 34 a3 4c bd 31 ed e0 3d 1c 55 0e 3d 3b 61 ee bc
       -0.04996033 0.10982741 0.034749135 -0.029099097
0001b0 f5 86 fb bb 78 fd 21 3c 11 92 a9 3b 36 0c f4 3d
       -0.0076760002 0.009887092 0.005174883 0.119163916
0001c0 bd 2a fe 3d 56 93 84 3c d7 6b 2f 3e 46 a0 0b 3e
       0.124104954 0.016183536 0.17130981 0.13635358
0001d0 18 48 e3 bd 74 3c 13 3d dc 0e 1a bd f5 ed f6 bd
       -0.11097735 0.035946324 -0.037611827 -0.120571055
0001e0 ba b6 57 bd 0f 98 08 3e 9a b4 12 bd 05 d0 d3 bd
       -0.052664496 0.13339256 -0.035816766 -0.10342411
0001f0 41 d1 f4 3d 87 fc b5 bd ee d4 c6 bd 0f 27 b1 bd
       0.119539745 -0.088860564 -0.09708582 -0.08650028
000200 f6 8c 11 be 9c 71 9d 3c 36 4a cb bd f6 a6 24 bd
       -0.14213929 0.019219212 -0.09926264 -0.04019829
000210 dd 42 31 3e ee 09 12 3d fd 4b 14 3b 15 3f 4c 3c
       0.17310663 0.035654 0.00226283 0.012466212
000220 c3 dc 83 3b 76 29 06 bd b2 61 70 bc 8e b1 96 bd
       0.0040241196 -0.032754384 -0.01467173 -0.073580846
000230 18 42 2d be fd 84 37 3d 3a 9d af bd d1 3b 8d 3d
       -0.16919744 0.044804562 -0.085749105 0.06896175
000240 82 5d 50 bd c0 85 5d 3d 98 54 14 3e b3 1b b7 bd
       -0.050870426 0.054082632 0.14485395 -0.0894083
000250 da 07 7c bc a2 12 67 bd 72 00 1b bd b5 23 b5 bc
       -0.015382731 -0.056414254 -0.03784222 -0.022111753
000260 de d9 0e bc e1 2e 0a bd 20 d0 21 be c3 54 02 3c
       -0.008718936 -0.033736113 -0.1580205 0.007954779
000270 03 a3 f0 3c 87 3f 9f 3b 49 8f 38 3e 2c 8f ef bd
       0.029374605 0.004859868 0.18023409 -0.1169723
000280 19 ff fb bd 28 4a 67 3e 90 25 82 3e 5b f8 11 3e
       -0.123045154 0.22586882 0.25419283 0.14254896
000290 be a3 2c 3e 6d a4 79 3d 1f e3 2f 3c 14 af 5e bd
       0.16859338 0.060947824 0.010735302 -0.054366186
0002a0 65 7a 95 3c ef 98 18 3d 63 58 ac bc e8 06 25 be
       0.018246839 0.037255224 -0.02103824 -0.16115916
0002b0 01 69 c8 3d 5e 99 f8 bc 2a 25 9c bc ba 2f 64 3d
       0.09785653 -0.030346569 -0.01906069 0.055709578
0002c0 4b 23 94 3d ce 56 6b be 98 63 10 bb 93 b8 bd bb
       0.07233294 -0.22982332 -0.0022032019 -0.005789825
0002d0 5a 1e 40 be 1b 2f cb bd ac 6f 19 be 44 2c 45 bd
       -0.18761578 -0.09921094 -0.14984006 -0.048137918
0002e0 d1 fe b1 bd 81 ba 0d be 9f 28 7e bd 4c 3c e3 bd
       -0.086911805 -0.13840677 -0.062050458 -0.11095485
0002f0 c8 67 9e bd 13 94 a2 3d 99 2a 7b 3d f4 e7 00 3e
       -0.077346385 0.07938399 0.06131992 0.12588483
000300 02 37 e0 bd 6a b6 a7 bd 02 af b2 ba 77 a3 10 bd
       -0.10947992 -0.081890896 -0.0013632479 -0.035312142
000310 1d 28 a8 bd a1 43 ee 3d 8c cb 3b bc af cc 56 bd
       -0.08210776 0.11633993 -0.011462104 -0.052441295
000320 9b ef 09 3d 37 61 69 bd fc c4 ed bc ec ef b5 bc
       0.03367577 -0.056977477 -0.029024594 -0.02220913
000330 71 a7 8b bd d9 2f 2d bd fe 10 a8 bd 08 69 fd bd
       -0.06819046 -0.04228196 -0.08206366 -0.12373549
000340 63 dc 92 bc 3d e0 d9 bd bc c0 cb 3c 41 9e 2c 3e
       -0.017927354 -0.10638473 0.024872176 0.16857244
000350 c0 80 0c be 1c e3 10 be 60 e9 e6 bd 4e 12 9d bb
       -0.13720989 -0.14149135 -0.112749815 -0.004793442
000360 d5 78 83 3d a0 0a 07 3e b8 a7 91 3d 03 a6 ea 3c
       0.06419531 0.13187647 0.07112068 0.028643614
000370 d4 c1 6a 3d ec 89 73 3e d6 f6 0c be 9a de 73 bd
       0.057313755 0.23783082 -0.13766035 -0.05953846
000380 82 8b 23 be c6 d6 c0 3d 16 70 9b 3d d7 92 4b 3c
       -0.15971187 0.09415965 0.07589738 0.012425146
000390 c8 fa b6 3d f4 57 ef bc 65 41 9e 3d fb d3 a3 bc
       0.089345515 -0.029216744 0.07727317 -0.019998541
0003a0 9c 51 08 3d e3 3f 39 3e bf 9d a6 bd 51 d9 ba bd
       0.033280954 0.18090777 -0.081355564 -0.09123481
0003b0 f7 50 f9 3d 90 25 7a bd c8 d4 0c be b7 f4 d3 3a
       0.12173646 -0.06107098 -0.13753045 0.0016170953
0003c0 8f da 19 3d 86 2d 2b bd f4 42 78 bd 46 e0 21 3e
       0.03756195 -0.04179146 -0.060610726 0.1580821
0003d0 a9 1d 06 3e d7 18 29 be a7 9f ea 3d a6 f2 e8 bc
       0.13097252 -0.16513382 0.114562325 -0.028436016
0003e0 07 08 c7 bd 17 52 85 3e d0 9c 2c bd b1 6d 71 bb
       -0.09718328 0.26039192 -0.042141736 -0.0036839063
0003f0 88 89 94 bd b6 48 11 be 02 e4 4d be 41 10 50 be
       -0.072527945 -0.14187893 -0.2010651 -0.203187

dw.nw.6.bias f4 [64]
000000 2f d3 1e bd 8d b4 10 bd f8 a0 34 3c b1 7f e6 bc
       -0.03877562 -0.035328437 0.011024706 -0.02813706
000010 89 57 b1 bb 69 df 04 bd 9f c6 1e bc 5f 3f 55 3c
       -0.0054120463 -0.032439623 -0.00969091 0.013015597
000020 43 ed 81 bc c5 39 c9 bb c5 8f 2b bc 41 79 5a bc
       -0.015860206 -0.00614092 -0.010471289 -0.013334573
000030 c3 10 15 bd cd 71 ea 3b f4 9c 0b bd d7 71 31 bc
       -0.03639294 0.0071546794 -0.03408523 -0.010830364
000040 56 1e 2f 3c cd aa 28 bd d9 ef 96 bb a9 f1 24 bd
       0.010688385 -0.041178513 -0.004606229 -0.040269528
000050 28 0a 35 3c 94 8f 06 b7 be 43 01 3d 45 57 ab 3b
       0.011049785 -8.020452e-06 0.031558745 0.005228909
000060 c6 5e d5 3c 13 1e 62 3b 86 d6 04 3d 57 48 1a bb
       0.026046168 0.003450279 0.032431148 -0.0023541653
000070 33 0e 68 bc 7d 99 ac bc 1a 85 22 3d 63 a1 f3 3c
       -0.014163542 -0.021069283 0.039677717 0.029740041
000080 ab 82 29 bc 65 74 ba bc a3 90 bc bc 9d 5e f8 3c
       -0.010346095 -0.02276058 -0.023018187 0.030318553
000090 bc 3b 0f bc d4 85 1a bd ac 17 2b 3c 8b 6c 05 3d
       -0.008742269 -0.037725285 0.0104426555 0.032574218
0000a0 4d 4e a4 bc 8c 52 98 3c a4 b1 9e ba 9d 42 7e 3c
       -0.020056868 0.018594049 -0.0012107384 0.0155188115
0000b0 1f 2d 5b 3c 4a c3 1b 3b 76 af 5c bc 5b 1c f2 3b
       0.013377457 0.0023767524 -0.0134695675 0.007388634
0000c0 a8 4d 34 3b f1 ed db 3c f4 35 73 3b f8 b5 e6 3c
       0.0027512107 0.026846858 0.0037111016 0.028162941
0000d0 18 85 c4 bb db 49 c9 3c 80 b1 4f bc 86 0d fb bc
       -0.0059973113 0.02457135 -0.012676597 -0.030646097
0000e0 bd d0 f5 3b 8a 25 c5 3c 10 a4 aa 3b 06 2d 91 3c
       0.00750169 0.024065752 0.005207546 0.017721664
0000f0 57 f8 be 3c fc 18 86 3c 95 b9 79 3c 0a 57 0e 3c
       0.023311777 0.016369335 0.015242 0.008687744

dw.nw.7.weight f4 [64]
000000 0f a5 80 3f 96 be 72 3f 57 ac 6f 3f c7 b5 7f 3f
       1.0050372 0.9482206 0.93622345 0.99886745
000010 42 eb 78 3f a3 dc 57 3f a7 0f 85 3f 12 01 4c 3f
       0.97233975 0.8432104 1.0395402 0.79689133
000020 c2 df 9a 3f b2 95 7c 3f a4 52 8e 3f bf 92 4d 3f
       1.2099535 0.98665917 1.111897 0.8030204
000030 64 f1 7c 3f 37 01 8a 3f 4b 9c 5f 3f 93 76 8d 3f
       0.9880583 1.0781621 0.8734786 1.1051811
000040 98 06 d1 3f f0 da 70 3f 4b 9a 6b 3f f8 cf 6e 3f
       1.6330137 0.9408407 0.9203231 0.93286085
000050 48 ca 8a 3f a9 a9 43 3f 5d e4 63 3f 20 64 58 3f
       1.0842981 0.76430756 0.8902033 0.8452778
000060 4b 48 81 3f 72 ba 84 3f 08 10 57 3f 5e b5 6a 3f
       1.0100187 1.0369399 0.84008837 0.91682994
000070 6b 38 b8 3f 6f 94 87 3f 73 3d 7a 3f 93 ba 61 3f
       1.4392217 1.0592173 0.97750014 0.88175315
000080 df 50 7b 3f 36 02 8a 3f 2e 29 95 3f 2a 4f 9c 3f
       0.98170274 1.0781925 1.1653192 1.2211659
000090 50 a2 46 3f 70 5f 79 3f 78 74 60 3f 6b 64 a7 3f
       0.7759142 0.9741125 0.8767772 1.307752
0000a0 10 87 a4 3f 60 0b 4d 3f 5c 66 84 3f 0d 8f 84 3f
       1.2853718 0.8009548 1.0343738 1.0356156
0000b0 4c bf 53 3f 1f 5b 83 3f 3b a7 79 3f be 9b 76 3f
       0.8271377 1.0262183 0.975208 0.96331394
0000c0 33 ae 65 3f e6 b6 83 3f cf c5 81 3f 7d d1 8a 3f
       0.8971893 1.0290191 1.0138491 1.0845181
0000d0 5a 50 66 3f 89 a0 63 3f 96 2e 5c 3f b0 d5 71 3f
       0.89966357 0.8891683 0.86008584 0.94466686
0000e0 9b 68 73 3f 5f 31 88 3f 05 7f 59 3f 6e d7 90 3f
       0.9508149 1.0640067 0.8495944 1.1315744
0000f0 41 88 83 3f a1 2f 75 3f 93 02 44 3f ac 4d 70 3f
       1.0275956 0.957758 0.7656643 0.9386852

dw.nw.7.bias f4 [64]
000000 6b 09 df be 45 7a 4a be 3e 37 44 bf bf 20 64 3d
       -0.43561873 -0.19773205 -0.7664679 0.05569529
000010 06 6d 1e bf e1 3b 8d be 9c ba ab be be 99 ea 3d
       -0.61885107 -0.27584746 -0.3354081 0.11455105
000020 4e 1d 01 bf c8 cb 70 bf 25 10 a2 bd b7 e0 7c be
       -0.5043534 -0.94060946 -0.079132356 -0.24695097
000030 d6 7a d7 be f8 00 1d bf 35 c4 4a be 13 8e ee bd
       -0.42085904 -0.61329603 -0.1980141 -0.11648192
000040 86 f5 11 bf 34 4d c1 be 91 16 24 bf da b1 50 3e
       -0.57015264 -0.37754214 -0.64096934 0.20380345
000050 99 cb 3c 3e a2 02 a6 bd 87 5b c3 be 63 50 d0 be
       0.18437041 -0.08105971 -0.38155767 -0.4068633
000060 6b 2b 07 bf c9 48 5c 3c 51 ed 9b be fb 34 b7 be
       -0.52800626 0.013445088 -0.30454496 -0.35782608
000070 44 e1 13 be d1 9b 00 3e 86 67 dc 3e 53 52 02 bf
       -0.14441401 0.12559439 0.43047732 -0.50906867
000080 fe 22 e6 3e cd 21 30 3d d9 37 85 bd 08 09 55 3d
       0.44948572 0.043000985 -0.06504793 0.052010566
000090 65 8b 05 3d 37 a1 38 bf db f5 44 bf bc 31 a5 bb
       0.03260364 -0.72120994 -0.76937646 -0.005041329
0000a0 d2 e3 d9 be 33 4c 82 be d8 cd 85 be 97 53 9b bd
       -0.42556626 -0.2544876 -0.2613361 -0.07584303
0000b0 a3 13 bb bd 3d b1 02 bd aa 9c fb be 5f 89 82 bf
       -0.09134605 -0.03190731 -0.49142963 -1.0198172
0000c0 b4 bb 07 bd 8d b2 c8 3e 9e f7 77 be 99 11 22 3e
       -0.033137992 0.39198723 -0.24215552 0.15827025
0000d0 b3 71 07 bf d6 36 13 be c1 a3 74 be e3 99 04 bf
       -0.52907866 -0.14376387 -0.23890592 -0.5179731
0000e0 9c 6a 54 bf 48 0e 92 3e d8 5a c8 be 25 a8 f9 bd
       -0.82975173 0.2852652 -0.39131808 -0.12190274
0000f0 24 1f 06 3f 54 25 1b bf 56 32 ea be 81 68 ce 3d
       0.52391267 -0.60603833 -0.45741528 0.10078526

dw.nw.7.running_mean f4 [64]
000000 6c d5 c6 bf 67 5e e3 bf 07 82 70 bf 0b d3 74 bf
       -1.5533881 -1.7763184 -0.93948406 -0.95634526
000010 98 c4 d4 bf 4b 7f a1 bf 2d 64 7e bf 29 c1 ab bf
       -1.6622496 -1.2616972 -0.99371606 -1.3418323
000020 73 e3 74 c0 b9 4a bf 3d 0f 08 ba 3e 8d ab ca be
       -3.8263824 0.09340424 0.36334273 -0.39584008
000030 d9 c2 42 c0 79 b6 c6 bf 94 69 e5 bf 79 de 44 bf
       -3.0431426 -1.5524436 -1.7922845 -0.76901966
000040 06 9d 4d 3f 3d 3d d2 bd d7 4e 9e be b0 6f 47 bf
       0.80317724 -0.102655865 -0.30919525 -0.77904797
000050 64 76 bd bf f9 b2 83 bf a4 e5 1c 40 29 4d 8e bf
       -1.4801755 -1.0288993 2.4515162 -1.1117297
000060 a7 c7 02 c0 9c b8 3a c0 76 99 05 c0 c8 80 b0 bf
       -2.0434358 -2.9175177 -2.0874915 -1.3789301
000070 27 eb 86 bf 2a 53 95 bf 8e 0a 14 bf e0 aa bf bf
       -1.0540513 -1.1666005 -0.57828605 -1.4974022
000080 13 82 4c bf 1c 05 08 c0 5f f5 05 bf d6 cb 01 c0
       -0.7988598 -2.1253119 -0.5232753 -2.0280662
000090 d9 d6 a6 3f 53 4c 58 3f a4 ef f6 3c 48 8e bf bf
       1.3034316 0.8449146 0.030143566 -1.4965296
0000a0 24 d5 24 c0 45 d3 27 c0 7f 41 9f bf 65 8e f4 be
       -2.575509 -2.6222699 -1.2441863 -0.47764888
0000b0 dd 45 52 bf 49 1a a2 bf 34 ea ee bf 9d 68 19 3e
       -0.8213785 -1.2664272 -1.8665223 0.14981313
0000c0 af b3 b7 3d 19 a4 83 bf ae 16 86 bf ff b0 f6 bf
       0.08969819 -1.0284454 -1.0475671 -1.9272765
0000d0 27 d3 c8 bf 21 fb ac 3f 78 96 e1 bf c1 e9 df bf
       -1.5689439 1.3514138 -1.7624044 -1.7493211
0000e0 a8 1f 47 3e a4 fb 6d be 1d 64 04 bf 0a fc d1 be
       0.1944567 -0.23240525 -0.5171526 -0.41012603
0000f0 c1 f8 2f 3e 47 88 9f bf fc e9 8f 3f d0 86 05 bf
       0.17184736 -1.2463464 1.1243281 -0.5215883

dw.nw.7.running_var f4 [64]
000000 1a 64 df 3f 72 45 b7 3f 44 90 8a 40 1e 40 08 40
       1.7452424 1.4318068 4.3301105 2.1289134
000010 86 98 9f 3f 1f 78 0f 41 6c 13 0e 40 11 45 0e 40
       1.2468421 8.966826 2.2199354 2.2229655
000020 d5 4c 8a 40 3b dd 14 40 99 6d 1a 40 82 7f c1 3f
       4.321879 2.3260028 2.4129393 1.5117037
000030 9b 7d 23 40 5b 6d 02 40 76 d2 08 40 bb 51 cb 3f
       2.5545413 2.0379245 2.1378455 1.5884317
000040 b2 d3 00 40 b4 0e 24 40 59 7a fa 3f 4b ad c7 3f
       2.0129209 2.5633974 1.9568588 1.559976
000050 48 4f 11 40 01 0d c9 3f a8 80 58 41 53 47 80 40
       2.270464 1.5707093 13.53141 4.0087066
000060 18 22 3a 40 cc 36 0a 40 6b 28 1e 40 a2 b4 24 40
       2.908331 2.1595945 2.471217 2.573525
000070 a6 d5 3b 40 20 11 fe 3f f8 ea 24 40 89 19 c2 3f
       2.934915 1.9848976 2.5768414 1.5164043
000080 34 b2 24 40 3d 6f 5e 40 dc 4d 1f 40 05 cb 67 40
       2.5733767 3.4755394 2.4891272 3.6217663
000090 e1 3d b6 3f 97 ba 2a 40 01 ab c2 3f f3 3f 43 40
       1.4237634 2.6676385 1.5208436 3.0507782
0000a0 a8 50 83 40 38 3e 07 40 34 cd 05 40 46 b5 0a 40
       4.1035957 2.1131725 2.0906496 2.167314
0000b0 c7 73 0a 40 bb f4 07 40 2c 0f dd 3f a1 9c e9 3f
       2.1633165 2.1243122 1.7270255 1.8250924
0000c0 0f 41 7e 40 8d bc 24 40 16 c6 b7 3f 04 a5 3d 40
       3.9727209 2.5740082 1.4357326 2.9631968
0000d0 11 d9 d2 3f 84 75 17 41 d3 0c df 3f 6f 1a 38 40
       1.6472493 9.46619 1.7425789 2.8766134
0000e0 cb 0b 47 40 35 cd 01 40 63 87 88 3f c6 50 06 40
       3.1100948 2.0281498 1.0666317 2.09868
0000f0 14 8b 2d 40 8e 28 fe 3f 12 f4 71 40 ed a5 bc 3f
       2.7116137 1.9856126 3.7805219 1.4738137
